assets/endpointer_float.tflite (tflite, 470800 bytes, 38 tensors)

filter2 f4 [64, 8, 1, 1]
-0.45034763 -0.18396372 -0.46618417 -0.24052712 -0.16929354 0.21869293 0.27550793 0.5552283
0.87758404 -0.6015389 -0.059835345 -0.14883561 0.041180115 0.032674156 -0.028980115 0.08120881
-0.101335324 0.1296589 0.05573436 -0.28333193 0.07586841 0.6548204 -1.184099 0.8235714
-0.0023106616 -0.45129958 0.6685465 -1.7090166 3.3792553 -1.7847763 0.14966534 0.0051116864
0.05320041 0.058506735 0.06399319 0.19962007 0.16425383 0.27285618 -0.3539593 -0.46062005
-0.15887643 -0.19350588 -0.15340279 -0.13276641 -0.32793912 0.40918145 0.14351621 0.36627457
-0.15985894 0.06446032 -1.0489119 1.4580755 0.37208468 -0.48498595 0.06227387 0.41330668
-1.1080028 3.6345067 -1.2640047 -0.102345355 -0.23489894 -0.14468014 -0.2930312 -0.12180426
0.4542092 0.060793053 0.12155776 -0.24694696 0.24324001 0.6107116 0.22173172 -1.1177982
-0.25332478 -0.07965011 -1.1989831 1.5963769 1.4566406 -1.0118349 -0.093608975 -0.24982858
-0.12079857 -0.127141 -0.1887974 -0.029739361 -0.11513098 -0.05667917 0.008044815 0.014433742
-0.52280325 -0.25832552 -0.17863388 -0.4042974 0.26019633 1.0814235 0.063107654 -0.14415325
-0.6653394 -0.039251648 0.696728 -0.3672324 -0.5076706 0.4443167 -0.1091425 0.005177248
1.3508722 0.21599409 -0.33527026 -0.24768117 -0.26791614 -0.31471372 -0.19494815 -0.4513124
-0.6974092 -0.23730259 -0.31724763 -0.08754788 -0.27710587 -0.13049068 0.8521894 0.90857023
0.9232235 -0.97137976 -0.5075938 1.6947356 -0.6789623 -0.8141507 1.3892907 -0.76329744
0.46441883 -0.018067516 0.051155526 -0.045731775 0.11934228 -0.13925055 0.0022018703 0.030218784
0.17052904 0.061347984 -0.1421237 0.10692249 -0.24458714 -0.56718194 -0.7296785 1.2027937
-0.2682672 1.0402586 -0.9233207 -0.108269796 0.53501624 -0.5118894 0.20388399 -0.13432725
-0.3549379 0.017228704 -0.32571408 0.4135678 0.26630515 -0.20913191 -1.1373802 1.5428072
-0.5531264 0.2993904 0.1666422 -0.35333818 0.27043912 -0.2798642 0.012199819 0.0807292
0.70053756 0.34855035 0.50036067 -0.42678168 0.02483914 0.042256735 0.31529596 0.08800943
0.8761297 -0.45648363 -1.1775821 1.2789267 -0.29978395 0.01915464 0.032035775 -0.20288478
-0.8248987 1.0750659 0.8715471 -0.87634623 -0.34491572 -0.95618165 0.7331692 0.52598697
-0.16509205 -0.77687585 0.18449272 1.3432444 -1.200894 1.0563631 0.3066776 -0.70567477
-0.49835587 -0.27590787 -0.35895106 -0.13184151 -0.212136 -0.17210287 -0.34737277 -0.24485177
-0.077158995 -0.1365805 -0.35671797 -0.46953735 0.021275528 0.17125116 0.84729624 0.018511275
-0.3846652 -0.28601128 -0.066606686 0.07881885 0.20795348 0.27336618 0.031075649 -0.10127326
1.3687186 -0.5845071 0.17481753 -0.40248004 0.17858183 -0.034798097 -0.13170175 -0.34104177
0.50645137 0.07619948 -0.11260739 -0.6328878 -0.4839535 -0.6371082 0.027647335 0.955218
-0.33434764 -0.13056612 -0.19759083 -0.18284808 -0.08951866 -0.17853302 -0.24628857 1.2012668
0.19445682 -0.18942538 0.09382493 -0.46953228 -0.004350209 -0.2961717 -1.338771 2.4192326
00000000: f793 e6be fc60 3cbe b1af eebe be4c 76be
00000010: 495b 2dbe 0af1 5f3e 600f 8d3e 7123 0e3f
00000020: 59a9 603f 74fe 19bf e815 75bd 5d68 18be
00000030: 7bac 283d 56d5 053d b567 edbc ce50 a63d
00000040: e588 cfbd 4dc5 043e b649 643d e210 91be
00000050: e660 9b3d 4fa2 273f 8e90 97bf 93d5 523f
00000060: 786e 17bb bd10 e7be dd25 2b3f 0ec1 dabf
00000070: b845 5840 8d73 e4bf df41 193e ef7f a73b
00000080: ace8 593d c2a4 6f3d dd0e 833d 3469 4c3e
00000090: 2832 283e ceb3 8b3e 273a b5be 64d6 ebbe
000000a0: 81b0 22be 6826 46be 9f15 1dbe ebf3 07be
000000b0: a3e7 a7be 3b80 d13e eaf5 123e 5788 bb3e
000000c0: 10b2 23be c603 843d bf42 86bf 38a2 ba3f
000000d0: e281 be3e 1450 f8be e312 7f3d ef9c d33e
000000e0: 09d3 8dbf c29b 6840 e8ca a1bf 719a d1bd
000000f0: 5989 70be 0827 14be 2f08 96be 8374 f9bd
00000100: 1c8e e83e 2302 793d 46f3 f83d aadf 7cbe
00000110: e913 793e 9857 1c3f a40d 633e 0314 8fbf
00000120: c9b3 81be 991f a3bd 4778 99bf 1456 cc3f
00000130: 3373 ba3f ce83 81bf 10b6 bfbd 10d3 7fbe
00000140: 3e65 f7bd 4031 02be 1b54 41be f69f f3bc
00000150: cbc9 ebbd 6b28 68bd 66ce 033c 807b 6c3c
00000160: 6fd6 05bf 3e43 84be cdeb 36be 1200 cfbe
00000170: 7438 853e 166c 8a3f 963e 813d e99c 13be
00000180: af53 2abf 56c6 20bd c45c 323f e305 bcbe
00000190: b3f6 01bf 7a7d e33e 1a86 dfbd e7a5 a93b
000001a0: 61e9 ac3f 8e2d 5d3e 8ba8 abbe 22a0 7dbe
000001b0: 4e2c 89be 2822 a1be 7da0 47be 6b12 e7be
000001c0: 6989 32bf 73ff 72be 486e a2be 4e4c b3bd
000001d0: d2e0 8dbe 599f 05be 1629 5a3f 0f98 683f
000001e0: 6058 6c3f 58ac 78bf abf1 01bf 19ed d83f
000001f0: 79d0 2dbf 2e6c 50bf 47d4 b13f 7667 43bf
00000200: 4ec8 ed3e 5402 94bc 7588 513d 3e51 3bbd
00000210: ba69 f43d b297 0ebe 414d 103b 628d f73c
00000220: 2a9f 2e3e 0648 7b3d e088 11be 2efa da3d
00000230: 0d75 7abe d632 11bf 36cc 3abf 25f5 993f
00000240: 525a 89be 3227 853f bf5e 6cbf 8ebc ddbd
00000250: d3f6 083f 2f0b 03bf f7c6 503e 158d 09be
00000260: 6cba b5be 3623 8d3c ffc3 a6be 29bf d33e
00000270: 2659 883e ad26 56be ad95 91bf b57a c53f
00000280: b199 0dbf b349 993e 41a4 2a3e bee8 b4be
00000290: ff76 8a3e 5c4a 8fbe c0e1 473c 5a55 a53d
000002a0: 6e56 333f 3175 b23e a317 003f 2183 dabe
000002b0: 747b cb3c 6615 2d3d 796e a13e 4a3e b43d
000002c0: 094a 603f 39b8 e9be 03bb 96bf dfb3 a33f
000002d0: 487d 99be 31ea 9c3c f237 033d 07c1 4fbe
000002e0: 902c 53bf c29b 893f b61d 5f3f 3a58 60bf
000002f0: cb98 b0be 52c8 74bf fab0 3b3f 15a7 063f
00000300: e40d 29be 56e1 46bf a9eb 3c3e 6fef ab3f
00000310: e5b6 99bf e836 873f d904 9d3e 1aa7 34bf
00000320: 8028 ffbe cc43 8dbe 6fc8 b7be 7601 07be
00000330: 2e3a 59be bc3b 30be d8da b1be 6cba 7abe
00000340: 8905 9ebd c2db 0bbe bda3 b6be 3367 f0be
00000350: 044a ae3c 775c 2f3e 68e8 583f f5a4 973c
00000360: d6f2 c4be 1270 92be 1669 88bd c76b a13d
00000370: c2f1 543e a7f6 8b3e 5c92 fe3c 5b68 cfbd
00000380: 2c32 af3f 42a2 15bf 5e03 333e dd11 cebe
00000390: 28de 363e 7388 0ebd d3dc 06be 079d aebe
000003a0: cca6 013f 790e 9c3d b49e e6bd ef04 22bf
000003b0: c1c8 f7be 8619 23bf aa7c e23c 2b89 743f
000003c0: 9d2f abbe 20b3 05be 4055 4abe 873c 3bbe
000003d0: 8f55 b7bd 5cd1 36be 1233 7cbe 1cc3 993f
000003e0: b01f 473e baf8 41be 4927 c03d 8966 f0be
000003f0: 338c 8ebb d1a3 97be d95c abbf b5d4 1a40

bias3 f4 [64]
-0.77866095 -0.12111598 -0.17566948 -2.0095284 0.10791141 -0.07561508 -1.9558915 -1.4632859
-0.9048137 -1.8881879 0.3262076 -0.65511143 -0.4463876 -1.1789267 -1.2289265 -1.5199525
-0.21542697 -0.21487504 -0.28221798 -0.74759454 0.018800477 -2.8324342 -0.54115576 -2.1117723
-1.1675864 -1.9224703 -0.40836444 0.069317825 -0.45492297 -0.8324509 -0.4693184 -1.7646432
-0.7064042 -0.19528922 -2.345752 -1.6913164 -0.5240088 -0.037225768 -1.6078371 -0.37342006
-0.32257274 -0.25197887 -0.6868828 -0.09092711 -0.72679275 -0.1486924 -0.44013435 -2.1598437
-2.3516803 -2.1613882 -1.0867031 -0.046889044 -0.79761374 -0.46400505 -0.6690262 -0.23062202
-0.83940274 -1.6406201 -0.33709475 -1.4875243 -0.6435634 -1.3208628 -2.3101537 -0.61306417
00000000: 5356 47bf a80b f8bd b3e2 33be 1d9c 00c0
00000010: a800 dd3d 14dc 9abd a75a fabf f44c bbbf
00000020: dfa1 67bf 24b0 f1bf af04 a73e 62b5 27bf
00000030: ea8c e4be 12e7 96bf 774d 9dbf ce8d c2bf
00000040: e398 5cbe 3408 5cbe e07e 90be 5b62 3fbf
00000050: 7503 9a3c 9a46 35c0 2f89 0abf 4727 07c0
00000060: 7973 95bf 8213 f6bf 2515 d1be 81f6 8d3d
00000070: aaeb e8be 811b 55bf 804a f0be d4df e1bf
00000080: e8d6 34bf e6f9 47be cd20 16c0 0e7d d8bf
00000090: 7125 06bf 0c7a 18bd 9bcd cdbf ea30 bfbe
000000a0: 4128 a5be 6003 81be 8dd7 2fbf fe37 babd
000000b0: 170f 3abf d242 18be 4a59 e1be e13a 0ac0
000000c0: ee81 16c0 2f54 0ac0 1619 8bbf ba0e 40bd
000000d0: 6a30 4cbf 1292 edbe 4d45 2bbf 2e28 6cbe
000000e0: 19e3 56bf d7ff d1bf af97 acbe 3267 bebf
000000f0: 92c0 24bf 0812 a9bf 8fd9 13c0 c6f1 1cbf

weights7 f4 [64, 704]
0.06396649 -0.01969618 0.06902631 -0.11660651 -0.077521466 0.080501355 -0.011341891 -0.040731587
-0.09888181 0.022369646 0.7498655 -0.22068985 0.14738666 0.19189692 -0.2999748 -0.003950579
-0.11486619 -0.13592777 -0.3620937 0.07991908 0.38828233 -0.044514507 0.15041906 -0.045212127
-0.19955836 -0.2131958 -0.10532271 0.5998352 0.4065665 0.27373242 -0.07290221 0.03160932
-0.13824987 0.117082395 0.13437518 0.14443713 0.005373914 0.13981603 0.13671419 0.09548065
0.04736327 0.21109815 0.00073323824 0.14546785 -0.32614914 -0.11959204 -0.21397245 0.2504502
-0.087258205 -0.1931695 0.14953917 0.042178337 -0.23427221 0.019457921 -0.042026415 -0.32082638
0.1287912 -0.20270272 0.25612095 -0.05359021 -0.38783428 0.080683015 -0.20154981 -0.1432372
-0.12026218 0.047624238 0.05316045 -0.07761632 -0.21771829 -0.2261653 0.01677287 -0.29349408
0.021693928 -0.052075863 0.15777409 -0.27706116 0.08676172 -0.13096818 -0.3733667 -0.10833962
-0.1300362 0.16006838 -0.0015359257 -0.08116894 0.1402449 -0.0646002 -0.0055986783 0.007756067
-0.15441431 0.07596499 -0.4384239 -0.040528048 -0.11131934 0.1501737 -0.08914963 -0.058719113
-0.029783968 -0.059865568 0.06276234 0.2315725 -0.044326536 -0.2212812 0.04010789 -0.08784644
0.112232596 0.098489806 -0.18323022 -0.0025010386 -0.15204284 0.18079007 -0.033145156 -0.12999728
-0.110744305 -0.011077468 -0.2351735 -0.1165748 -0.095212966 -0.07504268 0.21665415 -0.43311995
0.05296873 0.23816682 -0.0054358295 -0.072796375 -0.4449008 -0.10114447 -0.07590754 -0.16835287
0.017032892 -0.21630391 -0.06655573 -0.13011703 -0.20889376 0.1073503 0.040742442 -0.21244825
-0.20585783 -0.026652545 0.013089049 -0.33113682 -0.06544507 -0.08896282 -0.023396917 -0.10012938
-0.5393997 -0.07828717 0.30655593 0.021813361 0.029346673 -0.066670984 0.03701424 0.015529385
-0.09531486 -0.1109718 0.008814947 -0.024305139 -0.23213938 0.079388194 0.029899862 -0.06640181
-0.08826313 -0.07494365 0.03251461 0.13814108 -0.05945475 -0.13676381 -0.11097495 -0.15238886
-0.047939155 -0.05093632 -0.16942956 -0.030380122 -0.04253535 -0.031876724 -0.14451408 -0.036267124
-0.12955019 -0.02071523 -0.26824823 -0.24934402 0.0482484 0.058795556 0.38958493 -0.22944634
-0.15669991 0.08656058 -0.22097191 -0.10143289 -0.27544016 -0.2892887 -0.18764551 -0.35435534
0.1727826 -0.18596023 0.1687985 -0.032015353 0.12602226 0.10265914 -0.021092605 -0.014390473
0.084976956 -0.11850007 -0.17311923 0.2277977 -0.07970494 0.06193447 -0.112082765 -0.14981483
0.049717467 -0.11674494 0.27306813 -0.13818674 -0.110741705 0.027280033 0.029401451 0.035100166
-0.06768569 -0.03455146 0.1296115 -0.23523112 0.0416168 -0.053433847 -0.029431442 -0.17587698
0.038818788 0.0065694945 0.07867673 -0.02563213 -0.10353518 -0.093496 0.010617051 0.14682202
-0.037349675 0.0052352403 -0.1860748 -0.023773769 0.05766416 -0.011357819 0.058104787 0.040179234
-0.023581637 0.03584711 -0.049006373 0.03804658 -0.20610897 0.035002716 0.3345876 0.08078631
-0.014543674 -0.051334914 -0.045497097 0.11001167 0.15588517 -0.32269228 -0.16512892 0.13403235
00000000: dd00 833d e259 a1bc ab5d 8d3d 65cf eebd
00000010: 93c3 9ebd e5dd a43d 57d3 39bc 2ad6 26bd
00000020: 8c82 cabd 8c40 b73c 2ff7 3f3f 85fc 61be
00000030: 87ec 163e a080 443e 4c96 99be dc73 81bb
00000040: f73e ebbd a630 0bbe 5864 b9be 9dac a33d
00000050: f1cc c63e d854 36bd 7407 1a3e 5a30 39bd
00000060: 0759 4cbe 0050 5abe 6fb3 d7bd cd8e 193f
00000070: 7c29 d03e a826 8c3e c14d 95bd c678 013d
00000080: 6091 0dbe e5c8 ef3d a699 093e 54e7 133e
00000090: a817 b03b ef2b 0f3e cefe 0b3e 5c8b c33d
000000a0: fdff 413d 1d2a 583e c936 403a 86f5 143e
000000b0: 05fd a6be acec f4bd 981b 5bbe 023b 803e
000000c0: 6eb4 b2bd 3ace 45be cc20 193e 31c3 2c3d
000000d0: 0ee5 6fbe 3866 9f3c e423 2cbd 5b43 a4be
000000e0: d7e1 033e 4d91 4fbe 4922 833e 6881 5bbd
000000f0: 3792 c6be 233d a53d 1363 4ebe c6ac 12be
00000100: 054c f6bd a211 433d c6be 593d 4ef5 9ebd
00000110: 8bf1 5ebe e097 67be 4267 893c db44 96be
00000120: 77b7 b13c 804d 55bd 888f 213e f6da 8dbe
00000130: 21b0 b13d 861c 06be ec29 bfbe 2ae1 ddbd
00000140: 3628 05be f7e8 233e 1d51 c9ba e73b a6bd
00000150: 5c9c 0f3e 1c4d 84bd 1e75 b7bb 9b26 fe3b
00000160: c91e 1ebe 8893 9b3d 1979 e0be bd00 26bd
00000170: 65fb e3bd 22c7 193e 1594 b6bd 7483 70bd
00000180: 82fd f3bc 9935 75bd 8b89 803d 5721 6d3e
00000190: be8f 35bd 8a97 62be 2c48 243d d6e8 b3bd
000001a0: 34da e53d 06b5 c93d b4a0 3bbe 77e8 23bb
000001b0: 1eb1 1bbe 0821 393e 37c3 07bd 021e 05be
000001c0: e9cd e2bd 457e 35bc 52d1 70be c5be eebd
000001d0: 04ff c2bd faaf 99bd 96da 5d3e e6c1 ddbe
000001e0: bdf5 583d 01e2 733e 0b1f b2bb 4416 95bd
000001f0: 0aca e3be d524 cfbd 6a75 9bbd b264 2cbe
00000200: 9088 8b3c c67e 5dbe 5f4e 88bd 663d 05be
00000210: 3fe8 55be 79da db3d 8ce1 263d 098c 59be
00000220: 65cc 52be 7056 dabc 7373 563c c48a a9be
00000230: 1108 86bd 2432 b6bd e4aa bfbc a210 cdbd
00000240: 1916 0abf 0655 a0bd e6f4 9c3e efb1 b23c
00000250: 6f68 f03c cc8a 88bd 3e9c 173d f66e 7e3c
00000260: 7034 c3bd 2f45 e3bd 916c 103c 921b c7bc
00000270: f2b5 6dbe 4796 a23d 8ef0 f43c acfd 87bd
00000280: 4dc3 b4bd 0e7c 99bd 0a2e 053d db74 0d3e
00000290: d386 73bd d00b 0cbe d646 e3bd d30b 1cbe
000002a0: d95b 44bd 9aa2 50bd f17e 2dbe bcdf f8bc
000002b0: 8c39 2ebd 2b91 02bd 80fb 13be d68c 14bd
000002c0: cea8 04be fcb2 a9bc d557 89be 0a54 7fbe
000002d0: 1da0 453d 9cd3 703d ad77 c73e fbf3 6abe
000002e0: f175 20be ac46 b13d 7646 62be 0cbc cfbd
000002f0: 7e06 8dbe a61d 94be 2526 40be 106e b5be
00000300: eced 303e 5c6c 3ebe 84d9 2c3e 8822 03bd
00000310: fb0b 013e f53e d23d 66ca acbc 05c6 6bbc
00000320: 6608 ae3d 2ab0 f2bd 2b46 31be cd43 693e
00000330: 583c a3bd 00af 7d3d a68b e5bd 0f69 19be
00000340: 8ba4 4b3d f917 efbd 96cf 8b3e d380 0dbe
00000350: 8ccc e2bd 607a df3c 50db f03c 31c5 0f3d
00000360: cc9e 8abd d585 0dbd e1b8 043e 6de0 70be
00000370: 6176 2a3d 73dd 5abd 351a f1bc 1819 34be
00000380: 7300 1f3d ea44 d73b 4421 a13d 79fa d1bc
00000390: 410a d4bd d57a bfbd 24f3 2d3c 8358 163e
000003a0: f9fb 18bd 618c ab3b 648a 3ebe 35c1 c2bc
000003b0: 4131 6c3d 2516 3abc 49ff 6d3d fb92 243d
000003c0: 472e c1bc 6bd4 123d e8ba 48bd bbd6 1b3d
000003d0: 3b0e 53be 025f 0f3d 114f ab3e 4b73 a53d
000003e0: 9748 6ebc 8f44 52bd 2a5b 3abd cc4d e13d
000003f0: 5da0 1f3e ec37 a5be 8e17 29be c73f 093e

bias8 f4 [64]
0.38290215 -0.32602155 0.7613131 2.1844091 -0.18307275 -0.676262 -0.290884 0.5779516
0.5624852 -0.16073821 -0.16795078 0.46381968 0.05806598 -0.30071032 0.47516847 -0.47214633
0.07742703 -0.5060239 0.06612551 0.5063368 -0.67634875 0.20440099 -0.24674426 0.9446953
0.020724624 0.49686736 -0.14751285 0.32366273 -1.3137206 0.87378985 0.48645934 0.4314042
-0.6176905 -0.48696953 0.5738665 0.35346273 -1.3650167 0.40166456 -0.87205595 -0.008638496
0.017846428 -0.62552047 -1.5955445 0.2713045 0.38515797 0.8535085 -0.9059312 -0.09318861
0.3320962 0.7814027 0.78217167 0.030060124 0.24890907 0.9154482 -0.7796248 0.31598002
-0.1865873 1.1651402 0.14405999 -0.63044953 -0.55892324 -0.0027449124 -0.15123424 -0.007945456
00000000: c00b c43e 4cec a6be 6ae5 423f 5ccd 0b40
00000010: 6c77 3bbe 821f 2dbf bfee 94be a3f4 133f
00000020: 08ff 0f3f 8f98 24be 4afb 2bbe c679 ed3e
00000030: 98d6 6d3d b4f6 99be 4849 f33e 2abd f1be
00000040: 1092 9e3d c88a 01bf d06c 873d 4a9f 013f
00000050: 3125 2dbf 7e4e 513e 87aa 7cbe 8dd7 713f
00000060: b0c6 a93c 6665 fe3e 9c0d 17be 1fb7 a53e
00000070: ff27 a8bf b1b0 5f3f 3311 f93e 03e1 dc3e
00000080: f720 1ebf 1254 f9be eae8 123f 11f9 b43e
00000090: deb8 aebf faa6 cd3e 0f3f 5fbf 7a88 0dbc
000000a0: ac32 923c 1c22 20bf cd3a ccbf 6ce8 8a3e
000000b0: 6d33 c53e 887f 5a3f 1beb 67bf acd9 bebd
000000c0: 8308 aa3e 020a 483f 673c 483f a640 f63c
000000d0: 05e2 7e3e d05a 6a3f 7e95 47bf 22c8 a13e
000000e0: be10 3fbe 5023 953f 7684 133e 2465 21bf
000000f0: 9815 0fbf fde3 33bb 26dd 1abe a82d 02bc

input2input_weights10 f4 [64, 64]
-0.068463326 -0.4473275 -0.08378047 0.23890431 0.2849156 0.008790678 0.24749129 -0.13986689
-0.20084287 -0.33850464 -0.022367617 -0.27935684 0.15909667 -0.37113515 -0.049073737 -0.19910964
0.28985184 -0.16039096 -0.08607261 -0.10029074 0.07809679 0.40345824 -0.057120547 -0.06984354
-0.113310784 -0.008492426 -0.23646787 0.23756374 -0.11594317 0.0595051 -0.35739732 0.25166073
0.029151559 0.01873548 0.45300344 0.76484776 -0.05462574 0.13649537 -0.22986263 -0.01934699
0.031731848 0.28570172 -0.12874462 0.36924642 -0.09140406 0.11727876 -0.3604749 0.37177756
-0.072983764 0.04716109 -0.23344736 0.08362412 0.025880316 -0.026275918 -0.33093148 -0.09999702
-0.27333668 0.3030461 -0.07342634 0.36479247 0.07414608 -0.06957597 -0.34994128 0.014527721
0.15428796 -0.2746311 -0.21723972 -0.30193508 -0.25098404 0.15679468 -0.113089286 -0.12811118
0.13168728 -0.03388461 0.1674509 0.27708274 0.052449573 0.22462925 -0.015628377 0.18675701
0.14678457 -0.12917584 0.10777406 0.20812406 0.09395641 -0.1029059 0.20086122 -0.056221254
0.114903614 0.07866313 0.13779269 0.11125971 0.42473358 -0.046997163 -0.031517163 -0.1839417
0.11742139 0.102935895 0.18400824 0.03949518 0.35686713 -0.079737924 -0.030961867 -0.01954477
0.064355485 0.35593757 0.22563405 -0.038689647 -0.12456378 -0.3853495 0.12944384 0.08083064
0.05942956 -0.16656025 0.31459868 0.18905172 0.119492054 0.0709445 0.32294548 0.04755341
-0.31480575 0.012450569 0.07442556 -0.33284524 -0.07825644 0.049371712 0.10278303 0.0084707765
0.12665662 0.25957036 0.16172183 -0.15841031 -0.34195223 0.13898306 -0.61951566 0.20927344
0.014839279 0.14247832 -0.3254952 0.17715475 -0.53249234 -0.19967534 -0.04083488 -0.011097846
-0.42511585 -0.013033482 -0.20188884 -0.091139235 0.10135377 -0.34809434 -0.04419947 0.0729608
-0.4244131 -0.332805 -0.24395403 -0.5455795 -0.04278158 0.135638 0.66574657 -0.022800377
-0.13000327 -0.11317994 -1.1570199 -0.56866354 0.7085007 0.032717425 -0.095621124 0.15436263
0.2956523 0.47965127 0.22461642 -0.22165652 0.28936225 -0.18448777 0.41020536 -0.18095551
0.07718312 -0.0953396 -0.07100039 -0.59228784 -0.41553083 -0.14264166 0.281921 0.12929115
0.5578916 -0.28066272 0.03597531 -0.38368908 -0.31330842 -0.15221126 -0.04948603 -0.025373198
-0.123847015 -0.041925132 -0.1382039 -0.0086721415 0.056809943 0.04245628 0.08994682 -0.060588382
-0.107967526 -0.10303265 -0.09564437 0.12543976 -0.0054515763 -0.09412602 -0.014853537 0.01764613
0.15104003 0.10678734 -0.01740792 0.0935361 0.003565177 -0.13055831 -0.008900293 -0.13821256
-0.042148024 -0.064726174 -0.030381216 -0.1365321 0.0710931 -0.07676335 -0.22319207 -0.039402377
0.05249413 0.0777279 0.027860785 0.06491923 0.03356843 0.0032394796 0.19528697 -0.055315748
-0.016504217 -0.010473675 0.060642585 0.039371047 -0.014861239 0.055533372 0.20165145 0.09349788
-0.05530502 -0.13775957 -0.2247077 -0.15998316 0.12640448 -0.16320059 0.08562002 0.096252955
-0.20242086 -0.084348835 -0.002399119 0.051187284 0.041702956 -0.12953822 0.13857967 -0.124571584
00000000: 8036 8cbd 1c08 e5be 1895 abbd 55a3 743e
00000010: 75e0 913e c706 103c 5b6e 7d3e 4439 0fbe
00000020: c1a9 4dbe 7b50 adbe 4b3c b7bc dc07 8fbe
00000030: 3dea 223e 6d05 bebe 8b01 49bd 66e3 4bbe
00000040: 7667 943e 873d 24be d646 b0bd 3b65 cdbd
00000050: 36f1 9f3d 1492 ce3e 3cf7 69bd 210a 8fbd
00000060: 7c0f e8bd d123 0bbc a224 72be e943 733e
00000070: 9d73 edbd 9fbb 733d c8fc b6be add9 803e
00000080: 40cf ee3c 267b 993c 11f0 e73e 10cd 433f
00000090: 3dbf 5fbd 71c5 0b3e 1c61 6bbe 947d 9ebc
000000a0: 41f9 013d 7f47 923e a1d5 03be de0d bd3e
000000b0: 0d32 bbbd d92f f03d 2b90 b8be a159 be3e
000000c0: 8378 95bd fd2b 413d d30c 6fbe 1f43 ab3d
000000d0: f502 d43c 9840 d7bc da6f a9be 3dcb ccbd
000000e0: c9f2 8bbe dc28 9b3e 8d60 96bd 14c6 ba3e
000000f0: e6d9 973d d97d 8ebd 812b b3be ae05 6e3c
00000100: aafd 1d3e 739c 8cbe 1774 5ebe 3c97 9abe
00000110: fb80 80be c98e 203e 5b9b e7bd 942f 03be
00000120: 08d9 063e 97ca 0abd 4078 2b3e cadd 8d3e
00000130: 5dd5 563d 3605 663e 1507 80bc 3b3d 3f3e
00000140: b24e 163e ac46 04be a5b8 dc3d 791e 553e
00000150: 386c c03d 54c0 d2bd 90ae 4d3e 4248 66bd
00000160: 9652 eb3d 231a a13d 8719 0d3e 21dc e33d
00000170: ae76 d93e 1980 40bd 2418 01bd 375b 3cbe
00000180: a07a f03d 0ed0 d23d a86c 3c3e b3c5 213d
00000190: 4ab7 b63e a34d a3bd bea3 fdbc 5a1c a0bc
000001a0: cfcc 833d 733d b63e 9d0c 673e 0979 1ebd
000001b0: 4c1b ffbd 884c c5be ed8c 043e 898a a53d
000001c0: 696c 733d c58e 2abe 1413 a13e c696 413e
000001d0: 40b8 f43d 5a4b 913d 1c59 a53e 5dc7 423d
000001e0: 382e a1be 79fd 4b3c 6e6c 983d b16a aabe
000001f0: ea44 a0bd fe39 4a3d e97f d23d 03c9 0a3c
00000200: 46b2 013e 68e6 843e 689a 253e 5036 22be
00000210: 5d14 afbe 9351 0e3e 9498 1ebf c74b 563e
00000220: 7320 733c d6e5 113e 4fa7 a6be 0e68 353e
00000230: 6b51 08bf b177 4cbe 7a42 27bd bdd3 35bc
00000240: c9a8 d9be 638a 55bc f3bb 4ebe 35a7 babd
00000250: 9192 cf3d 6c39 b2be 810a 35bd 796c 953d
00000260: ad4c d9be 6b65 aabe 16cf 79be 19ab 0bbf
00000270: bd3b 2fbd b0e4 0a3e 5e6e 2a3f dbc7 babc
00000280: 941f 05be e2ca e7bd 3a19 94bf ef93 11bf
00000290: 4d60 353f b502 063d 02d5 c3bd 3d11 1e3e
000002a0: bd5f 973e da94 f53e d901 663e edf9 62be
000002b0: 4a27 943e 5dea 3cbe 7006 d23e 674c 39be
000002c0: 2f12 9e3d 6941 c3bd a768 91bd 2da0 17bf
000002d0: 75c0 d4be a810 12be f357 903e e664 043e
000002e0: fcd1 0e3f 06b3 8fbe d95a 133d e572 c4be
000002f0: f669 a0be 45dd 1bbe ddb1 4abd 74db cfbc
00000300: 81a3 fdbd b0b9 2bbd 5385 0dbe 9915 0ebc
00000310: 8bb1 683d a3e6 2d3d 0a36 b83d 862b 78bd
00000320: 141e ddbd c802 d3bd 32e1 c3bd 4873 003e
00000330: 23a3 b2bb 25c5 c0bd 405c 73bc 9e8e 903c
00000340: 3daa 1a3e 52b3 da3d 0e9b 8ebc db8f bf3d
00000350: bfa5 693b 14b1 05be 89d2 11bc 9887 0dbe
00000360: 68a3 2cbd 288f 84bd 07e2 f8bc 12cf 0bbe
00000370: 4299 913d 1a36 9dbd 768c 64be 6364 21bd
00000380: 1604 573d ce2f 9f3d 4d3c e43c 60f4 843d
00000390: 0d7f 093d 734d 543b 4ff9 473e c492 62bd
000003a0: da33 87bc c799 2bbc 5c64 783d 8943 213d
000003b0: 8e7c 73bc f676 633d b87d 4e3e d17b bf3d
000003c0: 8487 62bd d810 0dbe c619 66be a0d2 23be
000003d0: 2d70 013e 0e1e 27be 8d59 af3d 4520 c53d
000003e0: 6a47 4fbe 15bf acbd 8a3a 1dbb c2a9 513d
000003f0: b8d0 2a3d aba5 04be d4e7 0d3e 631f ffbd

input2forget_weights11 f4 [64, 64]
-0.13983586 0.14976107 -0.05575304 -0.038628332 -0.017606294 -0.056836233 0.03472272 0.08444454
0.13375798 0.032207668 -0.043182477 0.07306367 0.051201362 0.05201896 -0.07213706 -0.01964374
-0.034872573 -0.021601941 0.07017138 0.016379314 0.00035733983 -0.14541657 -0.03863625 -0.008684707
-0.005130765 -0.10512071 0.13334578 -0.09073987 -0.05378737 0.09752939 0.016729701 -0.046455078
-0.042975117 0.05158803 -0.028648686 -0.2541464 0.0790934 -0.06289862 0.04102939 0.0001821226
-0.0047241827 0.10735095 0.025118293 -0.027813518 0.114274114 -0.07363414 -0.008351593 -0.12226979
0.060613703 0.013041635 0.16042282 -0.12766804 0.116007596 -0.030016271 -0.034030702 0.13535257
0.0163332 -0.24034223 -0.10060792 0.24254933 -0.018521534 0.04971001 0.013674481 0.039990835
0.21135303 -0.109279394 0.024352215 0.3894252 0.08947285 0.109314874 0.21516223 0.046290394
-0.10905659 -0.011699493 0.23776653 -0.10114859 -0.12409717 0.12034354 0.05976096 0.15623307
-0.029378124 0.048755653 0.07148475 -0.08245812 0.11337384 0.023599323 -0.09231864 -0.059369124
-0.0008956328 0.07815753 -0.07702258 0.024857722 0.23886915 -0.020244932 -0.08744726 0.12200965
0.07008538 -0.05304857 0.35370743 -0.038643338 0.1214859 0.08029476 0.27432972 0.048610266
0.05029369 0.0910724 0.045340944 0.019574108 -0.087651744 0.21658307 0.10057728 0.021932248
-0.16147713 0.17858046 -0.120349646 -0.06824882 0.025754733 0.18158308 0.18799163 -0.04062723
0.1485555 0.36185074 0.052628364 -0.1868851 0.096184246 0.045060933 0.13417621 0.04986285
0.17354587 0.65874815 0.3768691 0.14788058 0.08160143 0.18546523 0.5414491 0.9599802
0.39166957 -0.017097857 0.65168756 0.24780919 0.33686396 1.0308459 0.27526706 0.058410224
0.63169914 0.09543674 0.269167 0.1470495 0.57205766 0.025582971 0.09938591 0.4504767
0.0898071 0.24290319 0.30272406 0.4373601 0.04238285 0.1689827 0.49933276 0.1296406
0.3916411 0.3336527 0.8065696 0.20121023 0.13008839 0.14020011 0.16869293 0.07426989
0.07967867 0.088339254 0.1733764 0.6798215 0.17256644 0.5472221 -0.008524858 0.17127784
0.11890705 0.017129045 1.0769651 0.4499122 0.14791176 0.1184996 0.20655508 0.1461405
0.6635312 0.8290538 0.19016369 0.23248306 0.115678124 0.35256606 0.13487776 0.3449979
-0.06704506 0.07197889 -0.09941333 -0.0066706203 -0.007339688 0.11492823 0.07000372 0.08754305
0.01319638 -0.0821313 0.04316014 -0.00952165 -0.1117746 0.10280186 0.013336114 0.13350444
0.19296356 0.013748672 0.124444775 0.070660435 -0.06559567 -0.05710272 0.1509412 -0.058169648
-0.048084762 0.005065807 -0.010690533 0.09544997 0.2677774 -0.055030297 0.09467981 0.06953491
0.07490644 0.028998356 0.11717581 0.0033745668 -0.0680103 -0.032230057 0.09658008 0.014317471
0.039013382 0.021464055 0.006239299 0.039309636 -0.070563026 0.011047145 0.05717647 -0.03303557
0.21280278 0.013129217 0.22589971 0.0339965 0.06154818 0.027367387 0.15018326 0.0614554
-0.045102406 0.0078045884 0.031909034 0.04701137 0.08546717 -0.09114697 -0.0045220987 0.1104567
00000000: 2231 0fbe f75a 193e 4d5d 64bd be38 1ebd
00000010: 133b 90bc 1ccd 68bd 6939 0e3d 42f1 ac3d
00000020: daf7 083e 30ec 033d 1ce0 30bd 68a2 953d
00000030: 85b8 513d d511 553d 98bc 93bd e9eb a0bc
00000040: 8bd6 0ebd 8ef6 b0bc 03b6 8f3d e92d 863c
00000050: 5759 bb39 15e8 14be 0b41 1ebd 4d4a 0ebc
00000060: fa1f a8bb 8749 d7bd cc8b 083e d3d5 b9bd
00000070: 2550 5cbd 7dbd c73d ba0c 893c ae47 3ebd
00000080: ad06 30bd f84d 533d a6b0 eabc 7a1f 82be
00000090: b8fb a13d fed0 80bd 6f0e 283d 2af8 3e39
000000a0: 51cd 9abb d1da db3d e1c4 cd3c 2dd9 e3bc
000000b0: 8c08 ea3d 7fcd 96bd 1fd5 08bc 9568 fabd
000000c0: 1346 783d 95ac 553c e145 243e 69bb 02be
000000d0: 6495 ed3d afe4 f5bc c763 0bbd dd99 0a3e
000000e0: 34cd 853c 461c 76be 860b cebd da5e 783e
000000f0: 79ba 97bc b99c 4b3d ee0a 603c 6ecd 233d
00000100: ee6c 583e e0cd dfbd 4c7e c73c bd62 c73e
00000110: 8b3d b73d 7ae0 df3d 7d53 5c3e ff9a 3d3d
00000120: 1059 dfbd 3baf 3fbc 1279 733e fe26 cfbd
00000130: a826 febd ad76 f63d e9c7 743d 90fb 1f3e
00000140: 64aa f0bc 02b4 473d 9966 923d cedf a8bd
00000150: 8b30 e83d 5e53 c13c 8e11 bdbd 0a2d 73bd
00000160: e6c8 6aba 0e11 a03d 04be 9dbd 6ca2 cb3c
00000170: 1d9a 743e b3d8 a5bc 8d17 b3bd 32e0 f93d
00000180: ec88 8f3d 7549 59bd 2419 b53e 7a48 1ebd
00000190: 99cd f83d 9471 a43d f274 8c3e 8f1b 473d
000001a0: c200 4e3d 2b84 ba3d 6db7 393d e159 a03c
000001b0: c282 b3bd f4c7 5d3e 76fb cd3d 42ab b33c
000001c0: 435a 25be ccdd 363e e079 f6bd 0ac6 8bbd
000001d0: 97fb d23c eaf0 393e e180 403e bd68 26bd
000001e0: ef1e 183e 8044 b93e d790 573d cf5e 3fbe
000001f0: 3ffc c43d d091 383d 7d65 093e fd3c 4c3d
00000200: 02b6 313e b8a3 283f fdf4 c03e 026e 173e
00000210: a71e a73d 99ea 3d3e 699c 0a3f 43c1 753f
00000220: ea88 c83e ce10 8cbc ffd4 263f b1c1 7d3e
00000230: 6f79 ac3e c2f2 833f ceef 8c3e 8f3f 6f3d
00000240: 09b7 213f 5674 c33d 42d0 893e 2594 163e
00000250: 5f72 123f 6193 d13c d78a cb3d e2a4 e63e
00000260: c9ec b73d 9dbb 783e a6fe 9a3e aaed df3e
00000270: a499 2d3d cd09 2d3e 8ba8 ff3e 81c0 043e
00000280: 2f85 c83e 87d4 aa3e 587b 4e3f 0e0a 4e3e
00000290: e435 053e 9e90 0f3e d7bd 2c3e d01a 983d
000002a0: 922e a33d 36eb b43d 9589 313e c808 2e3f
000002b0: 42b5 303e bf16 0c3f d9ab 0bbc 7563 2f3e
000002c0: 8a85 f33d 3652 8c3c fed9 893f e45a e63e
000002d0: 2e76 173e ebaf f23d 2d83 533e dba5 153e
000002e0: 2edd 293f df3c 543f 45ba 423e 0a10 6e3e
000002f0: a7e8 ec3d 8a83 b43e 651d 0a3e 91a3 b03e
00000300: ec4e 89bd ab69 933d 3799 cbbd 3895 dabb
00000310: c481 f0bb 7e5f eb3d 1c5e 8f3d c549 b33d
00000320: a135 583c 7434 a8bd b0c8 303d b200 1cbc
00000330: 15ea e4bd c889 d23d b77f 5a3c 63b5 083e
00000340: 3d98 453e 1c42 613c e7dc fe3d 6bb6 903d
00000350: 0657 86bd 8be4 69bd 5490 1a3e 4c43 6ebd
00000360: 87f4 44bd 12ff a53b 5827 2fbc 467b c33d
00000370: 1f1a 893e 7367 61bd 7de7 c13d 5268 8e3d
00000380: 8c68 993d f68d ed3c dff9 ef3d d627 5d3b
00000390: fc48 8bbd aa03 04bd c7cb c53d d393 6a3c
000003a0: 7fcc 1f3d 63d5 af3c 0973 cc3b 2403 213d
000003b0: 5983 90bd 16ff 343c e031 6a3d 4e50 07bd
000003c0: f9e8 593e ed1b 573c 4152 673e ea3f 0b3d
000003d0: f219 7c3d 9231 e03c a4c9 193e a8b8 7b3d
000003e0: 4dbd 38bd a2bd ff3b 0cb3 023d ff8e 403d
000003f0: 6909 af3d 43ab babd 1d2e 94bb 1f37 e23d

input2cell_weights12 f4 [64, 64]
-0.10538101 -0.2169073 0.018044507 0.11052031 0.16870837 0.004863251 0.0773619 0.026902728
-0.079332136 -0.13255024 -0.07681829 -0.12774 0.107439525 -0.07993475 -0.032875597 -0.049791254
0.12130619 0.062946945 -0.10658458 -0.113646515 0.02935054 0.2209333 -0.08250559 0.027801378
-0.15843 -0.064202815 -0.01670648 0.122788735 -0.05296187 0.0137792025 -0.08756888 0.13783762
-0.05449197 0.058214623 0.3047769 0.37858063 -0.09095424 -0.036753263 -0.044677354 0.053688813
0.04058509 0.07380121 -0.31405595 0.09025041 0.016527917 -0.036994956 -0.24349582 0.09816544
-0.10357976 0.085319415 -0.13317059 -0.042662837 -0.021372719 -0.023912257 -0.14234944 -0.07917959
0.007813963 0.17102142 -0.062232524 0.14897601 0.02407606 -0.06107187 -0.21523233 -0.00024422913
-0.17265587 0.05483143 0.07659398 0.047810867 -0.09014595 -0.12148599 0.26009682 -0.03750541
0.08093466 -0.23016179 0.3551646 0.07482022 0.15692997 -0.15176748 -0.105434954 -0.20553833
-0.19592853 -0.24180792 0.18193276 0.045920182 0.04363279 0.07716344 0.036070142 0.41141403
0.43423462 0.08648718 0.161176 0.5913179 -0.0869098 -0.24771203 0.09718287 0.19290146
-0.055381414 0.008160656 0.44186452 0.37261558 -0.032564815 0.10897329 -0.092123285 0.044265676
-0.067279495 0.012693291 0.03790217 0.2226061 -0.0818042 0.3263238 0.08896984 0.08720348
0.20475423 0.36610433 0.61600554 0.10546979 0.14022435 0.21346766 0.15590802 -0.12676275
0.19736955 0.3605845 -0.14869916 -0.12918425 0.16398047 0.15576904 0.02272739 0.045222677
-0.07991808 0.028759886 -0.20004292 0.13260731 0.10433608 0.16334113 0.2332844 -0.10112326
0.30850574 -0.13115616 0.1677462 0.01935559 0.19798158 0.30187616 -0.4132581 -0.079751946
0.09124863 -0.17513174 0.34864858 0.23861346 -0.24430561 -0.21231447 -0.15163605 0.12567325
-0.22342296 0.63896996 0.26242742 -0.2208815 -0.07546427 -0.054844853 0.25377733 0.042876188
0.3568318 0.29772434 0.48695868 -0.1857167 0.30994216 -0.3562137 0.086934656 -0.0055495347
0.2050764 0.14526369 0.031254753 0.16017364 0.049316395 -0.085213535 0.08961827 -0.036980618
-0.14993675 -0.38013297 -0.017056119 -0.5292784 -0.37404865 0.33110684 -0.082148395 0.15031934
-0.6192557 -0.07666096 0.18718982 -0.111635506 0.31701213 0.38126233 0.06504506 -0.14639252
-0.20930302 0.048556536 0.19808134 0.083750166 -0.030195389 0.020409169 -0.0019028294 0.1371759
-0.118542776 0.25570428 0.11525485 0.74792457 0.2010896 0.20477445 -0.13976315 0.020729404
0.32813865 0.019174172 0.16935217 0.054988507 0.10164954 -0.10821075 -0.22928047 -0.047189567
-0.0025096682 0.050476808 0.021892386 0.21596181 0.13853565 0.03201977 -0.0049263733 0.22463518
0.14667906 0.019587975 0.4005829 0.20707998 -0.10448945 0.010427732 -0.062502384 0.081619106
0.31029743 0.033470243 -0.008641481 -0.07457428 -0.1033085 0.018773392 -0.052951597 -0.03539594
-0.14193669 -0.006086205 0.004999156 0.060750704 -0.08805547 0.2227384 -0.12510644 0.29431632
-0.07737515 0.1702075 0.023321388 0.08899709 0.10354662 0.00026624533 -0.013186034 -0.22708817
00000000: 00d2 d7bd f21c 5ebe 13d2 933c 7958 e23d
00000010: e3c1 2c3e e85b 9f3b ea6f 9e3d 1c63 dc3c
00000020: e378 a2bd 40bb 07be e852 9dbd 46ce 02be
00000030: 4109 dc3d d5b4 a3bd 90a8 06bd eaf1 4bbd
00000040: 616f f83d 54ea 803d 0449 dabd 81bf e8bd
00000050: 8b70 f03c 573c 623e b1f8 a8bd b7bf e33c
00000060: 793b 22be c47c 83bd 07dc 88bc a978 fb3d
00000070: 8cee 58bd 2ac2 613c 5057 b3bd 4e25 0d3e
00000080: f932 5fbd 7572 6e3d b80b 9c3e 52d5 c13e
00000090: 3746 babd 978a 16bd 9aff 36bd cde8 5b3d
000000a0: 8d3c 263d 1725 973d f1cb a0be 35d5 b83d
000000b0: 8e65 873c 0688 17bd f856 79be f60a c93d
000000c0: a021 d4bd f2bb ae3d df5d 08be 3abf 2ebd
000000d0: d715 afbc a3e3 c3bc 0dc4 11be e928 a2bd
000000e0: 2306 003c 3d20 2f3e 88e7 7ebd 2b8d 183e
000000f0: 283b c53c 7f26 7abd dd65 5cbe e10b 80b9
00000100: b3cc 30be ec96 603d 4edd 9c3d 54d5 433d
00000110: 719e b8bd a6cd f8bd 692b 853e 469f 19bd
00000120: 12c1 a53d 88af 6bbe 22d8 b53e 583b 993d
00000130: 40b2 203e ef68 1bbe 48ee d7bd a478 52be
00000140: 7da1 48be 7f9c 77be 954c 3a3e cd16 3c3d
00000150: 4cb8 323d de07 9e3d 49be 133d dca4 d23e
00000160: 0054 de3e 3120 b13d 520b 253e 9c60 173f
00000170: c4fd b1bd 39a8 7dbe d007 c73d f687 453e
00000180: 9fd7 62bd 46b4 053c 113c e23e 78c7 be3e
00000190: af62 05bd 632d df3d 22ab bcbd ed4f 353d
000001a0: d5c9 89bd 85f7 4f3c 4e3f 1b3d daf2 633e
000001b0: f688 a7bd ea13 a73e d235 b63d bd97 b23d
000001c0: 18ab 513e 0772 bb3e 8ab2 1d3f 8c00 d83d
000001d0: f996 0f3e 4497 5a3e 5aa6 1f3e 18ce 01be
000001e0: 3e1b 4a3e 889e b83e 9844 18be e048 04be
000001f0: 7fea 273e eb81 1f3e cb2e ba3c 6a3b 393d
00000200: 17ac a3bd da99 eb3c 0dd8 4cbe 36ca 073e
00000210: 28ae d53d e642 273e 1be2 6e3e b619 cfbd
00000220: 77f4 9d3e cd4d 06be a9c5 2b3e 9d8f 9e3c
00000230: afbb 4a3e 838f 9a3e 9196 d3be fd54 a3bd
00000240: 90e0 ba3d bc55 33be 1182 b23e 1657 743e
00000250: 402b 7abe f768 59be 7b46 1bbe 7db0 003e
00000260: fdc8 64be 8993 233f e35c 863e c32e 62be
00000270: 038d 9abd ffa4 60bd 1aef 813e f19e 2f3d
00000280: a8b2 b63e 536f 983e a652 f93e 852c 3ebe
00000290: bdb0 9e3e a461 b6be cc0a b23d dfd8 b5bb
000002a0: 8cff 513e 01c0 143e fc04 003d 8f04 243e
000002b0: fdff 493d 6f84 aebd c989 b73d fd78 17bd
000002c0: 0589 19be caa0 c2be 46b9 8bbc ca7e 07bf
000002d0: 4e83 bfbe d686 a93e 6b3d a8bd 50ed 193e
000002e0: 8b87 1ebf 6c00 9dbd b0ae 3f3e 28a1 e4bd
000002f0: 6a4f a23e d134 c33e 5836 853d ece7 15be
00000300: 8853 56be 38e3 463d d6d5 4a3e 3585 ab3d
00000310: 525c f7bc 2131 a73c 5c68 f9ba d777 0c3e
00000320: 8ec6 f2bd aceb 823e bc0a ec3d fc77 3f3f
00000330: 6fea 4d3e 65b0 513e 121e 0fbe b6d0 a93c
00000340: ca01 a83e 2713 9d3c a86a 2d3e a13b 613d
00000350: a22d d03d 999d ddbd 80c8 6abe d949 41bd
00000360: 3f79 24bb c5c0 4e3d a957 b33c 1825 5d3e
00000370: 4adc 0d3e 2a27 033d 6a6d a1bb c406 663e
00000380: 0933 163e f676 a03c 3419 cd3e c60c 543e
00000390: 91fe d5bd 14d9 2a3c 4001 80bd eb27 a73d
000003a0: 4edf 9e3e 1818 093d 0095 0dbc 66ba 98bd
000003b0: 6893 d3bd a8ca 993c c6e3 58bd 55fb 10bd
000003c0: da57 11be ca6e c7bb f6cf a33b bbd5 783d
000003d0: 6d56 b4bd 8915 643e e71b 00be a1b0 963e
000003e0: dd76 9ebd e04a 2e3e 7f0c bf3c 1b44 b63d
000003f0: 4010 d43d d896 8b39 3c0a 58bc cd89 68be

input2output_weights13 f4 [64, 64]
0.05944979 -0.15052067 0.09504768 0.11422672 0.12287501 -0.07037369 0.02535011 0.27045935
0.045428656 0.31923848 0.11226093 0.17018119 -0.13487707 -0.0037441407 -0.016146556 0.07394116
-0.039986063 -0.15445116 -0.16328092 -0.0089252 0.13625994 -0.11040618 0.036707718 -0.1729843
0.111831725 -0.112101845 0.031811114 -0.06875068 -0.114213355 0.13588934 0.063142635 0.005687475
-0.004883245 0.053383123 0.22998822 0.10442643 0.2560276 0.04443262 -0.07687842 -0.032110296
0.04778362 -0.11024662 0.09827826 -0.24048994 0.061834667 -0.19035237 0.056285918 -0.116645284
0.2698898 0.30576012 0.1423541 0.2003052 0.12763461 0.27028012 -0.027015444 0.020926176
0.22710401 0.28099194 -0.13154927 0.060074206 0.034411393 0.12966223 0.12074989 0.064518824
-0.021163316 -0.101541445 -0.03255274 0.0031263407 0.06401017 0.03263771 0.16013946 0.16873276
-0.010598105 -0.043443035 0.18233499 0.11963574 -0.033184197 -0.19335358 0.049784277 0.07461152
-0.0761018 0.16111268 0.03223043 -0.033415314 -0.06948981 -0.10630503 -0.007179531 0.23269302
0.12665127 -0.04418427 -0.030086834 0.2607951 -0.071759716 -0.009389871 -0.053999703 0.22416778
-0.0052351705 -0.032768495 0.005238076 0.11861418 0.08210507 0.060087807 0.080148675 -0.022923512
-0.0356479 0.1739341 0.0985036 0.07638142 0.21704453 0.24659766 -0.0025757567 0.0968122
-0.19135468 0.20376518 0.11424522 0.13171782 -0.0006205202 0.08477659 -0.09090064 0.2101705
-0.032861747 0.32399914 -0.047679514 0.041915566 0.042591058 0.14487419 0.04495717 0.015366025
-0.07884648 -0.11970964 -0.14280155 -0.11028167 0.026031071 -0.10182013 -0.046173237 -0.16990563
0.18490185 0.13364346 -0.029977225 0.00906994 -0.106091864 0.023574147 -0.04700225 -0.0114786085
0.35593927 0.18859155 0.13170649 0.023463909 0.078082696 -0.36304635 0.15326501 -0.011453709
0.09356603 0.05790435 0.1237131 0.0047618262 0.10676464 0.12784237 -0.31787404 -0.41458726
0.0745971 -0.078783445 -0.19657183 -0.54241407 -0.3637074 -0.2144202 0.07416416 -0.30465883
-0.039570652 -0.3336896 -0.27686855 -0.028537154 -0.032610748 -0.2639904 0.008944525 -0.05994737
-0.09336268 0.13924818 -0.05885246 0.17583801 -0.13751565 0.20111468 -0.14713794 0.0915203
-0.16244417 -0.79549676 -0.060708303 -0.19072513 -0.06949871 -0.093035296 0.15341397 -0.22176798
0.22647357 0.1645846 0.28013557 0.17847241 0.065601386 -0.18072404 0.11737698 0.4070112
0.030647542 -0.23571588 0.22396713 -0.17502397 -0.024194371 0.3023609 0.036717616 -0.0831731
0.21945278 -0.6320798 0.06786746 0.10727074 0.21822038 0.04019998 -0.014159299 0.10543969
0.117528036 0.16430727 0.12527785 0.10917035 -0.18068603 -0.19375174 0.28267696 -0.01367076
0.034246948 0.008801734 0.41817054 0.09476333 -0.033198666 0.0022878987 0.014580486 -0.22034246
-0.16574441 -0.08836942 -0.10903186 0.016685871 -0.12014023 0.23145293 0.068896934 -0.028884105
-0.079902425 0.2889638 0.76880395 0.40747148 0.08510969 0.29997462 0.07797999 0.0639626
0.24287029 0.62029815 -0.17602204 -0.0109088095 0.142097 0.2579377 -0.09189798 0.33514032
00000000: 9f81 733d 1722 1abe 5ca8 c23d b3ef e93d
00000010: e5a5 fb3d 1520 90bd 09ab cf3c a679 8a3e
00000020: 6613 3a3d 3a73 a33e 0fe9 e53d fa43 2e3e
00000030: 371d 0abe 4260 75bb c845 84bc 776e 973d
00000040: 6dc8 23bd 7228 1ebe 1d33 27be 013b 12bc
00000050: ba87 0b3e a31c e2bd d55a 163d cc22 31be
00000060: 0808 e53d a795 e5bd 5f4c 023d 28cd 8cbd
00000070: b1e8 e9bd 9326 0b3e ed50 813d 005e ba3b
00000080: a103 a0bb 43a8 5a3d 0882 6b3e 86dd d53d
00000090: 0d16 833e fbfe 353d 6f72 9dbd 1686 03bd
000000a0: c2b8 433d fbc8 e1bd 1d46 c93d ff42 76be
000000b0: 5946 7d3d bbeb 42be 108c 663d b9e3 eebd
000000c0: ff2e 8a3e 978c 9c3e 46c5 113e ce1c 4d3e
000000d0: a6b2 023e 2862 8a3e 7e4f ddbc 5f6d ab3c
000000e0: f48d 683e 2dde 8f3e dab4 06be 5f10 763d
000000f0: f6f2 0c3d 2dc6 043e b84b f73d 7222 843d
00000100: b15e adbc f6f4 cfbd 0656 05bd 4be3 4c3b
00000110: c417 833d 1faf 053d 99fb 233e 48c8 2c3e
00000120: ada3 2dbc 53f1 31bd 06b6 3a3e 9503 f53d
00000130: 27ec 07bd 7bfe 45be 99ea 4b3d edcd 983d
00000140: 43db 9bbd b9fa 243e 0e04 043d 7fde 08bd
00000150: ac50 8ebd 74b6 d9bd 4542 ebbb 1447 6e3e
00000160: dfb0 013e 91fa 34bd aa78 f6bc ef86 853e
00000170: c2f6 92bd f9d7 19bc cb2e 5dbd 3d8c 653e
00000180: cb8b abbb 4238 06bd 2ba4 ab3b feeb f23d
00000190: b426 a83d a21e 763d fd24 a43d 17ca bbbc
000001a0: 8803 12bd c81b 323e 41bc c93d dd6d 9c3d
000001b0: ec40 5e3e 1984 7c3e 07ce 28bb 7a45 c63d
000001c0: 7bf2 43be d2a7 503e 66f9 e93d 09e1 063e
000001d0: 68aa 22ba 599f ad3d 1d2a babd f036 573e
000001e0: 0a9a 06bd 37e3 a53e 984b 43bd a8af 2b3d
000001f0: f673 2e3d e659 143e 0225 383d c8c1 7b3c
00000200: 437a a1bd 542a f5bd 923a 12be 5bdb e1bd
00000210: 1d3f d53c 1387 d0bd 2620 3dbd befb 2dbe
00000220: e956 3d3e d5d9 083e cc92 f5bc 169a 143c
00000230: b146 d9bd 921e c13c 6e85 40bd c610 3cbc
00000240: ac3d b63e 251e 413e 11de 063e 6237 c03c
00000250: d2e9 9f3d 36e1 b9be 81f1 1c3e 56a8 3bbc
00000260: 8c9f bf3d 1d2d 6d3d 4b5d fd3d 1809 9c3b
00000270: 6ba7 da3d 1ce9 023e 63c0 a2be c844 d4be
00000280: 5dc6 983d 3759 a1bd 204a 49be a6db 0abf
00000290: db37 babe f890 5bbe 61e3 973d 3efc 9bbe
000002a0: d614 22bd 5dd9 aabe b7c1 8dbe c0c6 e9bc
000002b0: d992 05bd c029 87be 0f8c 123c 608b 75bd
000002c0: ef34 bfbd 1397 0e3e 470f 71bd e10e 343e
000002d0: e7d0 0cbe 02f1 4d3e 54ab 16be ff6e bb3d
000002e0: c457 26be ada5 4bbf 45a9 78bd 734d 43be
000002f0: 5755 8ebd 4a89 bebd 8d18 1d3e 2517 63be
00000300: b0e8 673e de88 283e ee6d 8f3e 79c1 363e
00000310: 055a 863d b90f 39be 5863 f03d c663 d03e
00000320: 8e10 fb3c 815f 71be a457 653e 7c39 33be
00000330: 4633 c6bc 0ccf 9a3e 3665 163d a956 aabd
00000340: 3bb8 603e fbcf 21bf 18fe 8a3d c3b0 db3d
00000350: 2a75 5f3e bca8 243d 68fc 67bc c4f0 d73d
00000360: 8ab2 f03d 2a40 283e d648 003e b494 df3d
00000370: c205 39be db66 46be 09bb 903e 53fb 5fbc
00000380: 8746 0c3d 2635 103c 731a d63e 4713 c23d
00000390: 53fb 07bd 92f0 153b fee2 6e3c 74a1 61be
000003a0: e7b8 29be 07fb b4bd 194c dfbd cfb0 883c
000003b0: 150c f6bd ff01 6d3e d619 8d3d 5c9e ecbc
000003c0: e2a3 a3bd 10f3 933e 56d0 443f 1aa0 d03e
000003d0: fd4d ae3d 4696 993e f9b3 9f3d d3fe 823d
000003e0: fdb2 783e dccb 1e3f 1f3f 34be ddba 32bc
000003f0: e081 113e 6910 843e 0235 bcbd 8397 ab3e

rec2input_weights14 f4 [64, 64]
0.16126952 -0.5534365 1.0096105 -0.23471564 -0.18539716 0.14232855 -0.20991613 -0.8459608
0.072731666 -0.52762103 -0.95306677 -0.0672117 -0.7079884 0.15354328 0.11914344 0.9834251
-1.200852 0.5263065 -0.02384156 -0.1433808 -1.501968 -0.120757975 1.0866835 0.17705317
1.0999669 -0.7950924 -0.031429548 -0.34982795 0.52377 -0.24163261 -1.1129168 0.0047558025
-1.1045445 0.5822301 -0.1656219 0.17805187 -0.35057595 -0.20892498 1.1299895 -0.86320525
-0.49967885 -1.2644583 0.27033526 1.2460669 0.71245354 0.083794676 -0.16305625 -1.0418777
-0.14823166 -0.0350529 0.24794061 -0.046006475 -0.76073194 -0.895555 0.28613278 -0.21769634
-0.0795507 0.9231374 0.29750907 -1.3612449 0.6165645 -0.5319811 -0.0061702337 0.115830176
-0.090988725 -0.8796574 0.41416255 0.79895455 0.15629464 -0.77517796 1.156981 0.2759689
-0.21373789 -0.884576 -0.1186784 -0.25269336 -0.53065836 -0.032032315 -0.11828975 1.0414762
0.35453442 -0.446865 0.2608135 0.19124794 -0.07452793 -0.3163314 0.1774145 -0.21403216
-0.963949 0.2186554 -0.474314 0.28613997 0.7339722 0.4359009 0.13442288 -0.19879645
-0.3752059 -0.32409215 0.6472631 -0.5045906 -0.7259958 0.12659366 0.22967312 -0.50591195
-0.63350815 -0.44184443 0.5893028 -0.2131789 0.17382032 -0.10230386 -0.3815288 0.18275525
-0.016225405 -0.88821775 -0.30273494 -0.31780338 -1.0546652 0.17136514 -0.25396442 0.15208228
-0.28111064 0.3037416 0.07371858 -0.0352365 -0.14283396 0.10319813 -0.54115653 0.3609662
0.41115445 0.2229078 -1.0523343 0.06761596 -0.9832711 -0.7119758 -1.2610568 0.78548527
-0.9462503 -0.3365188 0.27243167 0.11920704 -0.5662107 -0.76673007 1.8342199 0.34094274
-0.14748563 -0.31139958 0.23944107 -0.22905472 0.7487262 0.77368665 -0.0064936266 0.1916541
-1.6188182 0.38627937 -0.34026182 0.12787502 0.26837823 -0.46716985 0.9874456 0.3853213
0.2860054 -0.35167128 0.20601118 0.04706886 -0.40989876 -0.039976884 -0.71744955 0.60482043
-0.82698506 0.2378355 -0.25351527 -0.6364487 -0.12394246 1.3576878 0.5528697 1.3585234
-0.27871934 -0.56091607 2.013232 0.7698825 -1.4951528 1.6134958 -1.0444877 0.4878123
0.60858375 -0.52409214 1.7304801 0.008930567 -1.3381741 0.45041338 -0.8354921 1.4769439
-0.10084019 -0.046821225 -0.19140135 -0.054634646 -0.22404678 -0.43553913 -0.06558688 0.34723556
0.15882672 0.10882698 0.24297106 -0.024485076 -0.31048578 0.47742772 -0.05287083 -0.06094971
-0.69470507 -0.51753795 0.2938705 0.02843991 0.50558925 -0.16689843 -0.07625416 -0.0615493
0.0057125567 0.49750552 0.26295435 0.34725404 -0.2405385 0.40347356 -0.14218067 0.17986113
0.04908692 -0.12919332 -0.058830068 -0.32682565 -0.2482578 0.046174206 0.03531973 -0.19421339
0.035111006 -0.49698818 -0.17778131 0.20599274 -0.09955318 0.06296031 0.15863763 0.03794086
0.27318177 0.016199483 -0.36779428 0.33161557 0.34538108 -0.09798165 -0.091507055 -0.0059441975
-0.07366948 0.01466044 -0.4153473 0.2957937 -0.16325364 -0.131737 0.30520564 -0.05393884
00000000: d623 253e 04ae 0dbf eb3a 813f 4c59 70be
00000010: c1d8 3dbe 93be 113e 41f4 56be e390 58bf
00000020: 57f4 943d 2c12 07bf 2ffc 73bf 4aa6 89bd
00000030: ba3e 35bf 733a 1d3e 7a01 f43d bfc1 7b3f
00000040: 85b5 99bf 06bc 063f 604f c3bc 6bd2 12be
00000050: 7d40 c0bf f54f f7bd 7218 8b3f 6d4d 353e
00000060: b7cb 8c3f 2d8b 4bbf 45bc 00bd a61c b3be
00000070: ca15 063f 8a6e 77be 0f74 8ebf 90d6 9b3b
00000080: b761 8dbf 080d 153f ca98 29be 3b53 363e
00000090: b17e b3be 6ef0 55be 7fa3 903f 05fb 5cbf
000000a0: e8d5 ffbe c5d9 a1bf 6269 8a3e 1f7f 9f3f
000000b0: 5b63 363f 8b9c ab3d 38f8 26be 405c 85bf
000000c0: 0aca 17be a193 0fbd 25e4 7d3e 4971 3cbd
000000d0: 54bf 42bf 1843 65bf ff7f 923e caeb 5ebe
000000e0: 7aeb a2bd bc52 6c3f 1c53 983e 463d aebf
000000f0: 2cd7 1d3f ea2f 08bf ac2f cabb 5f38 ed3d
00000100: 4c58 babd 3a31 61bf 1d0d d43e 4988 4c3f
00000110: b40b 203e 1072 46bf f417 943f cc4b 8d3e
00000120: 1bde 5abe 9373 62bf a90d f3bd 0661 81be
00000130: 3ad9 07bf 5134 03bd e541 f2bd 184f 853f
00000140: 8985 b53e 7dcb e4be 5989 853e 80d6 433e
00000150: 19a2 98bd 30f6 a1be 26ac 353e 3f2b 5bbe
00000160: 5dc5 76bf 34e7 5f3e 49d9 f2be f080 923e
00000170: 9ae5 3b3f 672e df3e 27a6 093e 4c91 4bbe
00000180: fd1a c0be 68ef a5be 09b3 253f d92c 01bf
00000190: dcda 39bf c5a1 013e 6e2f 6b3e 7283 01bf
000001a0: 972d 22bf 6f39 e2be 8cdc 163f 924b 5abe
000001b0: f4fd 313e b084 d1bd be57 c3be 3124 3b3e
000001c0: 24eb 84bc 3d62 63bf 1300 9bbe 20b7 a2be
000001d0: 45ff 86bf 587a 2f3e a007 82be 75bb 1b3e
000001e0: bced 8fbe 0584 9b3e c4f9 963d 2654 10bd
000001f0: 1143 12be 8b59 d33d 3c89 0abf 90d0 b83e
00000200: d682 d23e f141 643e e4b2 86bf 3d7a 8a3d
00000210: a8b7 7bbf 0c44 36bf 4f6a a1bf 9015 493f
00000220: 763d 72bf 314c acbe 2a7c 8b3e d222 f43d
00000230: 2ff3 10bf 6c48 44bf b8c7 ea3f 0c90 ae3e
00000240: 7906 17be c46f 9fbe 0a30 753e 528d 6abe
00000250: 85ac 3f3f 5410 463f 7dc8 d4bb f940 443e
00000260: 6f35 cfbf 69c6 c53e cc36 aebe abf1 023e
00000270: df68 893e e330 efbe 3cc9 7c3f d548 c53e
00000280: 4d6f 923e 420e b4be 98f4 523e 47cb 403d
00000290: 40de d1be cdbe 23bd c6aa 37bf 83d5 1a3f
000002a0: 4bb5 53bf 268b 733e c1cc 81be 4dee 22bf
000002b0: 8bd5 fdbd b7c8 ad3f de88 0d3f 18e4 ad3f
000002c0: 4db4 8ebe 3298 0fbf cbd8 0040 0517 453f
000002d0: 2b61 bfbf 0887 ce3f c6b1 85bf 89c2 f93e
000002e0: 25cc 1b3f e72a 06bf 5f80 dd3f 8351 123c
000002f0: 4a49 abbf 959c e63e cfe2 55bf 7f0c bd3f
00000300: 4d85 cebd 9dc7 3fbd b7fe 43be 94c8 5fbd
00000310: 856c 65be fcfe debe 6a52 86bd dcc8 b13e
00000320: 79a3 223e aee0 de3d 68cd 783e ed94 c8bc
00000330: fef7 9ebe 6871 f43e 158f 58bd 67a6 79bd
00000340: 31d8 31bf 5e7d 04bf 3276 963e d0fa e83c
00000350: 4c6e 013f 6ce7 2abe 242b 9cbd 1e1b 7cbd
00000360: 6630 bb3b 0bb9 fe3e f4a1 863e 48cb b13e
00000370: b94f 76be 1694 ce3e cf97 11be 842d 383e
00000380: 5e0f 493d 414b 04be ccf7 70bd b155 a7be
00000390: 4b37 7ebe 2a21 3d3d 6cab 103d e0df 46be
000003a0: 8fd0 0f3d 3c75 febe 4e0c 36be c3ef 523e
000003b0: 8ae2 cbbd 56f1 803d e771 223e e067 1b3d
000003c0: 7bde 8b3e c7b4 843c 884f bcbe 84c9 a93e
000003d0: cad5 b03e 9aaa c8bd 0d68 bbbd 8bc7 c2bb
000003e0: 06e0 96bd 5832 703c 67a8 d4be 4672 973e
000003f0: f62b 27be 10e6 06be ea43 9c3e f9ee 5cbd
