assets/hdrnet_quantized.tflite (tflite, 492320 bytes, 12 tensors)

inference/coefficients/global/conv1/weights u1 [64, 3, 3, 64] scale=0.0050703213 zero_point=164
000000 74 79 9e a6 89 c3 a9 ae 86 8f 72 8e b1 97 9c 8b
       -0.24337542 -0.2180238 -0.030421928 0.0101406425 -0.13689867 0.15717995 0.025351606 0.050703213 -0.15210964 -0.10647675 -0.25351608 -0.11154707 0.06591418 -0.06591418 -0.04056257 -0.12675804
000010 57 a6 a5 be b6 b4 c1 89 99 91 87 c7 89 9d bf b4
       -0.39041474 0.0101406425 0.0050703213 0.13182835 0.09126578 0.08112514 0.14703932 -0.13689867 -0.055773534 -0.096336104 -0.14703932 0.17746124 -0.13689867 -0.03549225 0.13689867 0.08112514
000020 b6 a9 80 a1 a9 a2 d9 a0 ad 9f 9c 6a 95 ad 7d a5
       0.09126578 0.025351606 -0.18253157 -0.015210964 0.025351606 -0.0101406425 0.26872703 -0.020281285 0.04563289 -0.025351606 -0.04056257 -0.29407865 -0.07605482 0.04563289 -0.19774252 0.0050703213
000030 c5 95 a2 b4 aa af 81 9f 89 be b5 a7 b1 6a 9c 64
       0.16732061 -0.07605482 -0.0101406425 0.08112514 0.030421928 0.055773534 -0.17746124 -0.025351606 -0.13689867 0.13182835 0.08619546 0.015210964 0.06591418 -0.29407865 -0.04056257 -0.32450056
000040 8d 84 b0 b1 8d b6 a9 ab 81 b3 86 a7 bf 9a 8e 7d
       -0.11661739 -0.16225028 0.060843855 0.06591418 -0.11661739 0.09126578 0.025351606 0.03549225 -0.17746124 0.07605482 -0.15210964 0.015210964 0.13689867 -0.050703213 -0.11154707 -0.19774252
000050 8a b0 ab a4 af a7 b5 99 8c ac 95 a8 8a 9f bc bf
       -0.13182835 0.060843855 0.03549225 0.0 0.055773534 0.015210964 0.08619546 -0.055773534 -0.12168771 0.04056257 -0.07605482 0.020281285 -0.13182835 -0.025351606 0.12168771 0.13689867
000060 be a0 95 94 c3 a0 88 97 9e 9c 98 76 a4 a4 93 9c
       0.13182835 -0.020281285 -0.07605482 -0.08112514 0.15717995 -0.020281285 -0.141969 -0.06591418 -0.030421928 -0.04056257 -0.060843855 -0.23323478 0.0 0.0 -0.08619546 -0.04056257
000070 c8 95 a8 b4 b1 a1 8e 9f 9b a1 a8 af 9a 83 8f 5c
       0.18253157 -0.07605482 0.020281285 0.08112514 0.06591418 -0.015210964 -0.11154707 -0.025351606 -0.04563289 -0.015210964 0.020281285 0.055773534 -0.050703213 -0.16732061 -0.10647675 -0.36506313
000080 94 aa a6 9d 95 ad ad a4 97 8e aa 9d b7 af 86 76
       -0.08112514 0.030421928 0.0101406425 -0.03549225 -0.07605482 0.04563289 0.04563289 0.0 -0.06591418 -0.11154707 0.030421928 -0.03549225 0.096336104 0.055773534 -0.15210964 -0.23323478
000090 97 b1 a9 b8 99 94 ac 9f a8 ac af b2 75 a0 ac b5
       -0.06591418 0.06591418 0.025351606 0.101406425 -0.055773534 -0.08112514 0.04056257 -0.025351606 0.020281285 0.04056257 0.055773534 0.0709845 -0.23830509 -0.020281285 0.04056257 0.08619546
0000a0 aa 9a 9b af bc a9 78 a5 a2 9f aa 9e b1 86 ac a3
       0.030421928 -0.050703213 -0.04563289 0.055773534 0.12168771 0.025351606 -0.22309414 0.0050703213 -0.0101406425 -0.025351606 0.030421928 -0.030421928 0.06591418 -0.15210964 0.04056257 -0.0050703213
0000b0 a2 a1 aa ae a8 93 93 9f 93 b2 b2 94 aa 99 a6 8f
       -0.0101406425 -0.015210964 0.030421928 0.050703213 0.020281285 -0.08619546 -0.08619546 -0.025351606 -0.08619546 0.0709845 0.0709845 -0.08112514 0.030421928 -0.055773534 0.0101406425 -0.10647675
0000c0 88 7b a1 a2 9e b8 a3 a2 88 b3 96 aa b5 86 83 78
       -0.141969 -0.20788318 -0.015210964 -0.0101406425 -0.030421928 0.101406425 -0.0050703213 -0.0101406425 -0.141969 0.07605482 -0.0709845 0.030421928 0.08619546 -0.15210964 -0.16732061 -0.22309414
0000d0 78 b1 b3 b4 aa 9c bc a4 a6 aa 97 b9 9e 9b aa c1
       -0.22309414 0.06591418 0.07605482 0.08112514 0.030421928 -0.04056257 0.12168771 0.0 0.0101406425 0.030421928 -0.06591418 0.10647675 -0.030421928 -0.04563289 0.030421928 0.14703932
0000e0 be b1 9e 9c c2 ab cd ab ae 90 94 8a b8 b6 93 70
       0.13182835 0.06591418 -0.030421928 -0.04056257 0.15210964 0.03549225 0.20788318 0.03549225 0.050703213 -0.101406425 -0.08112514 -0.13182835 0.101406425 0.09126578 -0.08619546 -0.2636567
0000f0 a8 a4 9b b4 a4 a5 8c 83 77 c3 a7 a2 c7 98 9f 6d
       0.020281285 0.0 -0.04563289 0.08112514 0.0 0.0050703213 -0.12168771 -0.16732061 -0.22816446 0.15717995 0.015210964 -0.0101406425 0.17746124 -0.060843855 -0.025351606 -0.27886766

inference/coefficients/global/conv2/weights u1 [64, 3, 3, 64] scale=0.00389111 zero_point=155
000000 c0 9d b5 b8 97 7f 9e 63 ae ae 72 bf 93 8a 6c 87
       0.14397107 0.00778222 0.101168856 0.11284219 -0.01556444 -0.10895108 0.011673329 -0.21790215 0.07393109 0.07393109 -0.15953551 0.14007996 -0.03112888 -0.06614887 -0.18288217 -0.0778222
000010 77 8c 79 a2 be 8a bb 8a 96 85 92 93 a5 96 b9 a1
       -0.14007996 -0.05836665 -0.13229774 0.02723777 0.13618885 -0.06614887 0.12451552 -0.06614887 -0.01945555 -0.08560442 -0.03501999 -0.03112888 0.0389111 -0.01945555 0.1167333 0.023346659
000020 6b b6 7f 92 9e ae 9d 97 8c a4 92 9b 85 a0 99 9a
       -0.18677327 0.10505997 -0.10895108 -0.03501999 0.011673329 0.07393109 0.00778222 -0.01556444 -0.05836665 0.03501999 -0.03501999 0.0 -0.08560442 0.01945555 -0.00778222 -0.00389111
000030 6f 98 9d c5 86 8d bc 73 97 c2 98 a8 4a 91 83 77
       -0.17120884 -0.011673329 0.00778222 0.16342662 -0.08171331 -0.05447554 0.12840663 -0.1556444 -0.01556444 0.15175329 -0.011673329 0.050584428 -0.3151799 -0.0389111 -0.093386635 -0.14007996
000040 b6 71 a2 af 9c 90 96 5a 7f 9f 6b aa b6 96 51 7a
       0.10505997 -0.16342662 0.02723777 0.0778222 0.00389111 -0.04280221 -0.01945555 -0.25292215 -0.10895108 0.01556444 -0.18677327 0.05836665 0.10505997 -0.01945555 -0.28794214 -0.12840663
000050 d0 a8 65 95 b8 55 a4 71 82 7a ac 7f a7 88 ae 8a
       0.20622882 0.050584428 -0.21011993 -0.023346659 0.11284219 -0.2723777 0.03501999 -0.16342662 -0.097277746 -0.12840663 0.06614887 -0.10895108 0.046693318 -0.07393109 0.07393109 -0.06614887
000060 74 a0 aa 9f 81 b7 89 b2 86 ba 88 a3 80 a1 74 8b
       -0.15175329 0.01945555 0.05836665 0.01556444 -0.101168856 0.10895108 -0.07003998 0.08949553 -0.08171331 0.12062441 -0.07393109 0.03112888 -0.10505997 0.023346659 -0.15175329 -0.06225776
000070 6a 94 90 a3 78 c0 b1 95 9f b1 b3 ae 57 ba 7b 8e
       -0.19066438 -0.02723777 -0.04280221 0.03112888 -0.13618885 0.14397107 0.08560442 -0.023346659 0.01556444 0.08560442 0.093386635 0.07393109 -0.26459548 0.12062441 -0.12451552 -0.050584428
000080 a2 92 b0 b4 91 a3 80 68 96 93 68 be a4 ad 81 66
       0.02723777 -0.03501999 0.08171331 0.097277746 -0.0389111 0.03112888 -0.10505997 -0.1984466 -0.01945555 -0.03112888 -0.1984466 0.13618885 0.03501999 0.07003998 -0.101168856 -0.20622882
000090 bd 9e 8f c8 a5 92 82 ab 95 95 ae 96 95 7e b3 a1
       0.13229774 0.011673329 -0.046693318 0.17509995 0.0389111 -0.03501999 -0.097277746 0.06225776 -0.023346659 -0.023346659 0.07393109 -0.01945555 -0.023346659 -0.11284219 0.093386635 0.023346659
0000a0 7b a3 ad 9a 9e a6 8c a3 a0 ae 9b a3 9b ba 98 99
       -0.12451552 0.03112888 0.07003998 -0.00389111 0.011673329 0.04280221 -0.05836665 0.03112888 0.01945555 0.07393109 0.0 0.03112888 0.0 0.12062441 -0.011673329 -0.00778222
0000b0 85 a6 a4 aa 6e a9 91 9a 90 9f 9c 9c 79 af 7f 98
       -0.08560442 0.04280221 0.03501999 0.05836665 -0.17509995 0.05447554 -0.0389111 -0.00389111 -0.04280221 0.01556444 0.00389111 0.00389111 -0.13229774 0.0778222 -0.10895108 -0.011673329
0000c0 c7 86 96 c3 8c aa 88 a3 95 96 8b b4 91 86 76 87
       0.17120884 -0.08171331 -0.01945555 0.1556444 -0.05836665 0.05836665 -0.07393109 0.03112888 -0.023346659 -0.01945555 -0.06225776 0.097277746 -0.0389111 -0.08171331 -0.14397107 -0.0778222
0000d0 82 8a 85 95 cd 94 c5 91 6c aa 85 8c 98 8e 9f 9d
       -0.097277746 -0.06614887 -0.08560442 -0.023346659 0.19455549 -0.02723777 0.16342662 -0.0389111 -0.18288217 0.05836665 -0.08560442 -0.05836665 -0.011673329 -0.050584428 0.01556444 0.00778222
0000e0 5f 9e 90 8c 69 bb 85 a1 aa a2 8c 9b 9e 9c 89 95
       -0.2334666 0.011673329 -0.04280221 -0.05836665 -0.19455549 0.12451552 -0.08560442 0.023346659 0.05836665 0.02723777 -0.05836665 0.0 0.011673329 0.00389111 -0.07003998 -0.023346659
0000f0 58 a4 70 a2 bc ae ae 8c a2 b2 a7 a6 6c 8d 76 8d
       -0.26070437 0.03501999 -0.16731773 0.02723777 0.12840663 0.07393109 0.07393109 -0.05836665 0.02723777 0.08949553 0.046693318 0.04280221 -0.18288217 -0.05447554 -0.14397107 -0.05447554

inference/coefficients/global/fc1/weights/transpose u1 [256, 1024] scale=0.0045450693 zero_point=159
000000 58 96 ba c0 a7 73 8a ba 8d 91 9b 8b a1 a7 a1 a3
       -0.32269993 -0.040905625 0.122716874 0.14998728 0.036360554 -0.19998305 -0.09544645 0.122716874 -0.08181125 -0.06363097 -0.018180277 -0.09090139 0.009090139 0.036360554 0.009090139 0.018180277
000010 9a 78 c6 a9 a8 86 81 9f 91 a7 8f 85 8c af a9 98
       -0.022725347 -0.1772577 0.1772577 0.045450695 0.040905625 -0.11362673 -0.13635208 0.0 -0.06363097 0.036360554 -0.07272111 -0.1181718 -0.08635632 0.07272111 0.045450695 -0.031815484
000020 95 b7 8c 8a 95 97 8d a7 87 7d 69 b0 3f 80 67 a7
       -0.045450695 0.10908166 -0.08635632 -0.09544645 -0.045450695 -0.036360554 -0.08181125 0.036360554 -0.10908166 -0.15453236 -0.24543375 0.07726618 -0.43632665 -0.14089715 -0.25452387 0.036360554
000030 b3 77 b0 ab ae 9e b5 97 7f 8c 98 7c 77 90 84 81
       0.09090139 -0.18180278 0.07726618 0.05454083 0.06817604 -0.0045450693 0.09999152 -0.036360554 -0.14544222 -0.08635632 -0.031815484 -0.15907742 -0.18180278 -0.06817604 -0.122716874 -0.13635208
000040 60 aa b5 d3 91 7c 88 a3 b6 a1 a1 88 b0 c0 97 ad
       -0.28633937 0.04999576 0.09999152 0.2363436 -0.06363097 -0.15907742 -0.10453659 0.018180277 0.10453659 0.009090139 0.009090139 -0.10453659 0.07726618 0.14998728 -0.036360554 0.06363097
000050 9c 78 b3 a0 9e a1 8a a5 b8 a0 aa 94 85 a0 cf 8c
       -0.013635208 -0.1772577 0.09090139 0.0045450693 -0.0045450693 0.009090139 -0.09544645 0.027270416 0.11362673 0.0045450693 0.04999576 -0.04999576 -0.1181718 0.0045450693 0.21816333 -0.08635632
000060 92 ac 8d b1 a0 9f b0 b7 a5 99 7c be 3e 73 78 c1
       -0.0590859 0.0590859 -0.08181125 0.08181125 0.0045450693 0.0 0.07726618 0.10908166 0.027270416 -0.027270416 -0.15907742 0.14089715 -0.44087172 -0.19998305 -0.1772577 0.15453236
000070 a6 a0 94 a2 9f 9d ae 7d 76 88 ba 7b 80 af 75 7e
       0.031815484 0.0045450693 -0.04999576 0.013635208 0.0 -0.009090139 0.06817604 -0.15453236 -0.18634784 -0.10453659 0.122716874 -0.1636225 -0.14089715 0.07272111 -0.1908929 -0.14998728
000080 80 95 b8 ba a2 74 8f a9 91 a6 95 8b b7 ca 98 a5
       -0.14089715 -0.045450695 0.11362673 0.122716874 0.013635208 -0.19543798 -0.07272111 0.045450695 -0.06363097 0.031815484 -0.045450695 -0.09090139 0.10908166 0.19543798 -0.031815484 0.027270416
000090 8a 9d af a0 a8 8e 9b b1 90 a3 98 87 9c a8 bc a9
       -0.09544645 -0.009090139 0.07272111 0.0045450693 0.040905625 -0.07726618 -0.018180277 0.08181125 -0.06817604 0.018180277 -0.031815484 -0.10908166 -0.013635208 0.040905625 0.13180701 0.045450695
0000a0 ac a8 80 91 a2 86 9b ab 95 87 89 b5 77 91 78 95
       0.0590859 0.040905625 -0.14089715 -0.06363097 0.013635208 -0.11362673 -0.018180277 0.05454083 -0.045450695 -0.10908166 -0.09999152 0.09999152 -0.18180278 -0.06363097 -0.1772577 -0.045450695
0000b0 a3 98 9e 89 b6 91 b2 a7 9b 79 a3 80 5a 8c 95 6a
       0.018180277 -0.031815484 -0.0045450693 -0.09999152 0.10453659 -0.06363097 0.08635632 0.036360554 -0.018180277 -0.17271264 0.018180277 -0.14089715 -0.31360978 -0.08635632 -0.045450695 -0.24088867
0000c0 99 97 b6 a5 a6 8f a0 95 a5 90 a7 ac ac b0 a4 96
       -0.027270416 -0.036360554 0.10453659 0.027270416 0.031815484 -0.07272111 0.0045450693 -0.045450695 0.027270416 -0.06817604 0.036360554 0.0590859 0.0590859 0.07726618 0.022725347 -0.040905625
0000d0 9c 41 c3 9a ab 72 79 b2 a6 b6 a0 8b a2 b8 9e 92
       -0.013635208 -0.42723653 0.1636225 -0.022725347 0.05454083 -0.20452812 -0.17271264 0.08635632 0.031815484 0.10453659 0.0045450693 -0.09090139 0.013635208 0.11362673 -0.0045450693 -0.0590859
0000e0 93 b1 81 a2 92 85 8e aa ad 75 87 af 5a a3 95 92
       -0.05454083 0.08181125 -0.13635208 0.013635208 -0.0590859 -0.1181718 -0.07726618 0.04999576 0.06363097 -0.1908929 -0.10908166 0.07272111 -0.31360978 0.018180277 -0.045450695 -0.0590859
0000f0 b0 7f c0 b3 bc 8e b4 8a 7d 9d ab 59 86 bf 78 a4
       0.07726618 -0.14544222 0.14998728 0.09090139 0.13180701 -0.07726618 0.09544645 -0.09544645 -0.15453236 -0.009090139 0.05454083 -0.31815484 -0.11362673 0.14544222 -0.1772577 0.022725347

inference/coefficients/global/fc2/weights/transpose u1 [128, 256] scale=0.004987586 zero_point=156
000000 9a 9c 92 9c 9c 9c ad 9c 9c 9c 91 9c 9c 9c a4 74
       -0.009975172 0.0 -0.04987586 0.0 0.0 0.0 0.084788956 0.0 0.0 0.0 -0.054863445 0.0 0.0 0.0 0.039900687 -0.19950344
000010 ad ab 8f 95 79 93 92 a1 90 9c 9a 9c 9c 9c b3 9c
       0.084788956 0.07481379 -0.06483862 -0.0349131 -0.17456551 -0.044888273 -0.04987586 0.02493793 -0.059851028 0.0 -0.009975172 0.0 0.0 0.0 0.11471447 0.0
000020 9b 9c 9c 9c aa 9c 91 9c 9c a1 9c 9c 9c 9c 8d ab
       -0.004987586 0.0 0.0 0.0 0.0698262 0.0 -0.054863445 0.0 0.0 0.02493793 0.0 0.0 0.0 0.0 -0.07481379 0.07481379
000030 85 ab 8f 9c a4 bf b8 a7 9c b4 9d 97 9c 9c 9c 9c
       -0.11471447 0.07481379 -0.06483862 0.0 0.039900687 0.17456551 0.1396524 0.054863445 0.0 0.119702056 0.004987586 -0.02493793 0.0 0.0 0.0 0.0
000040 9c 9c 94 9c 85 9c c6 9c 9c 89 9e 84 ad b6 9c 9c
       0.0 0.0 -0.039900687 0.0 -0.11471447 0.0 0.2094786 0.0 0.0 -0.09476413 0.009975172 -0.119702056 0.084788956 0.12967724 0.0 0.0
000050 a0 a3 9c 89 9a ab ac 94 9b af a4 7c 9c 9c 9c ae
       0.019950343 0.0349131 0.0 -0.09476413 -0.009975172 0.07481379 0.07980137 -0.039900687 -0.004987586 0.09476413 0.039900687 -0.15960275 0.0 0.0 0.0 0.089776546
000060 8f 9c ae 9c c8 9c 9c a0 9c 9c 9c 86 aa ab 9c 9c
       -0.06483862 0.0 0.089776546 0.0 0.21945378 0.0 0.0 0.019950343 0.0 0.0 0.0 -0.10972689 0.0698262 0.07481379 0.0 0.0
000070 a1 9a 9c 9c ae b0 9c 98 7a 9e 9c 7d b0 9c a3 a3
       0.02493793 -0.009975172 0.0 0.0 0.089776546 0.09975172 0.0 -0.019950343 -0.16957791 0.009975172 0.0 -0.15461516 0.09975172 0.0 0.0349131 0.0349131
000080 99 af a2 89 ab 9c 9c ab a2 9c 85 91 9c 9c a4 7a
       -0.014962757 0.09476413 0.029925514 -0.09476413 0.07481379 0.0 0.0 0.07481379 0.029925514 0.0 -0.11471447 -0.054863445 0.0 0.0 0.039900687 -0.16957791
000090 97 9c b2 9c 98 9c 9c 9c 93 9c 9c 9c 9c 9c 95 9c
       -0.02493793 0.0 0.10972689 0.0 -0.019950343 0.0 0.0 0.0 -0.044888273 0.0 0.0 0.0 0.0 0.0 -0.0349131 0.0
0000a0 9c a4 95 a4 9c 75 98 9c 9c 9c 8f 9c 75 96 8f 9c
       0.0 0.039900687 -0.0349131 0.039900687 0.0 -0.19451585 -0.019950343 0.0 0.0 0.0 -0.06483862 0.0 -0.19451585 -0.029925514 -0.06483862 0.0
0000b0 9c 9c 9c 9c 9c 9b a1 9c 95 9c 9f 9c a3 9c b5 9c
       0.0 0.0 0.0 0.0 0.0 -0.004987586 0.02493793 0.0 -0.0349131 0.0 0.014962757 0.0 0.0349131 0.0 0.124689646 0.0
0000c0 a9 9c 88 9c 9c a1 9c 95 b6 a1 9c 96 8c 95 a9 9c
       0.06483862 0.0 -0.09975172 0.0 0.0 0.02493793 0.0 -0.0349131 0.12967724 0.02493793 0.0 -0.029925514 -0.07980137 -0.0349131 0.06483862 0.0
0000d0 ad 9c 9c 9c 9c 9c 9f 8f ae 9c 9c a9 9c a5 9c 9c
       0.084788956 0.0 0.0 0.0 0.0 0.0 0.014962757 -0.06483862 0.089776546 0.0 0.0 0.06483862 0.0 0.044888273 0.0 0.0
0000e0 8f 9c 62 91 9a a4 9c b2 a2 9c 9c 9e 9c 9d 9c 9c
       -0.06483862 0.0 -0.28927997 -0.054863445 -0.009975172 0.039900687 0.0 0.10972689 0.029925514 0.0 0.0 0.009975172 0.0 0.004987586 0.0 0.0
0000f0 8f 9c 75 9c 9c 9c a2 9c 9c 9c 93 9c 87 b0 9c 9c
       -0.06483862 0.0 -0.19451585 0.0 0.0 0.0 0.029925514 0.0 0.0 0.0 -0.044888273 0.0 -0.1047393 0.09975172 0.0 0.0

inference/coefficients/global/fc3/weights/transpose u1 [64, 128] scale=0.0051849033 zero_point=183
000000 b7 b7 b7 b7 b7 b7 b7 b7 b7 b7 b7 b7 b7 b7 b7 b7
       0.0 0.0 0.0 0.0 0.0 0.0 0.0 0.0 0.0 0.0 0.0 0.0 0.0 0.0 0.0 0.0
000010 b7 b7 b7 b7 b7 b7 b7 b7 b7 b7 b7 b7 b7 b7 b7 b7
       0.0 0.0 0.0 0.0 0.0 0.0 0.0 0.0 0.0 0.0 0.0 0.0 0.0 0.0 0.0 0.0
000020 b7 b7 b7 b7 b7 b7 b7 b7 b7 b7 b7 b7 b7 b7 b7 b7
       0.0 0.0 0.0 0.0 0.0 0.0 0.0 0.0 0.0 0.0 0.0 0.0 0.0 0.0 0.0 0.0
000030 b7 b7 b7 b7 b7 b7 b7 b7 b7 b7 b7 b7 b7 b7 b7 b7
       0.0 0.0 0.0 0.0 0.0 0.0 0.0 0.0 0.0 0.0 0.0 0.0 0.0 0.0 0.0 0.0
000040 b7 b7 b7 b7 b7 b7 b7 b7 b7 b7 b7 b7 b7 b7 b7 b7
       0.0 0.0 0.0 0.0 0.0 0.0 0.0 0.0 0.0 0.0 0.0 0.0 0.0 0.0 0.0 0.0
000050 b7 b7 b7 b7 b7 b7 b7 b7 b7 b7 b7 b7 b7 b7 b7 b7
       0.0 0.0 0.0 0.0 0.0 0.0 0.0 0.0 0.0 0.0 0.0 0.0 0.0 0.0 0.0 0.0
000060 b7 b7 b7 b7 b7 b7 b7 b7 b7 b7 b7 b7 b7 b7 b7 b7
       0.0 0.0 0.0 0.0 0.0 0.0 0.0 0.0 0.0 0.0 0.0 0.0 0.0 0.0 0.0 0.0
000070 b7 b7 b7 b7 b7 b7 b7 b7 b7 b7 b7 b7 b7 b7 b7 b7
       0.0 0.0 0.0 0.0 0.0 0.0 0.0 0.0 0.0 0.0 0.0 0.0 0.0 0.0 0.0 0.0
000080 b7 b7 b7 b7 b7 b7 b7 b7 b7 b7 b7 b7 b7 b7 b7 b7
       0.0 0.0 0.0 0.0 0.0 0.0 0.0 0.0 0.0 0.0 0.0 0.0 0.0 0.0 0.0 0.0
000090 b7 b7 b7 b7 b7 b7 b7 b7 b7 b7 b7 b7 b7 b7 b7 b7
       0.0 0.0 0.0 0.0 0.0 0.0 0.0 0.0 0.0 0.0 0.0 0.0 0.0 0.0 0.0 0.0
0000a0 b7 b7 b7 b7 b7 b7 b7 b7 b7 b7 b7 b7 b7 b7 b7 b7
       0.0 0.0 0.0 0.0 0.0 0.0 0.0 0.0 0.0 0.0 0.0 0.0 0.0 0.0 0.0 0.0
0000b0 b7 b7 b7 b7 b7 b7 b7 b7 b7 b7 b7 b7 b7 b7 b7 b7
       0.0 0.0 0.0 0.0 0.0 0.0 0.0 0.0 0.0 0.0 0.0 0.0 0.0 0.0 0.0 0.0
0000c0 b7 b7 b7 b7 b7 b7 b7 b7 b7 b7 b7 b7 b7 b7 b7 b7
       0.0 0.0 0.0 0.0 0.0 0.0 0.0 0.0 0.0 0.0 0.0 0.0 0.0 0.0 0.0 0.0
0000d0 b7 b7 b7 b7 b7 b7 b7 b7 b7 b7 b7 b7 b7 b7 b7 b7
       0.0 0.0 0.0 0.0 0.0 0.0 0.0 0.0 0.0 0.0 0.0 0.0 0.0 0.0 0.0 0.0
0000e0 b7 b7 b7 b7 b7 b7 b7 b7 b7 b7 b7 b7 b7 b7 b7 b7
       0.0 0.0 0.0 0.0 0.0 0.0 0.0 0.0 0.0 0.0 0.0 0.0 0.0 0.0 0.0 0.0
0000f0 b7 b7 b7 b7 b7 b7 b7 b7 b7 b7 b7 b7 b7 b7 b7 b7
       0.0 0.0 0.0 0.0 0.0 0.0 0.0 0.0 0.0 0.0 0.0 0.0 0.0 0.0 0.0 0.0

inference/coefficients/local/conv1/weights u1 [64, 3, 3, 64] scale=0.0080301715 zero_point=159
000000 93 9c 9c 93 93 a1 9e 9c ac 9c a1 92 a0 a1 9d 92
       -0.096362054 -0.024090514 -0.024090514 -0.096362054 -0.096362054 0.016060343 -0.0080301715 -0.024090514 0.10439223 -0.024090514 0.016060343 -0.10439223 0.0080301715 0.016060343 -0.016060343 -0.10439223
000010 9f a4 9e a7 99 a1 9c a6 9c 9d ac 98 a3 9b 97 a9
       0.0 0.04015086 -0.0080301715 0.06424137 -0.048181027 0.016060343 -0.024090514 0.0562112 -0.024090514 -0.016060343 0.10439223 -0.0562112 0.032120686 -0.032120686 -0.06424137 0.08030172
000020 9a 97 a6 a6 a1 96 92 aa 9e 98 a9 a4 ab a1 9c a0
       -0.04015086 -0.06424137 0.0562112 0.0562112 0.016060343 -0.07227154 -0.10439223 0.088331886 -0.0080301715 -0.0562112 0.08030172 0.04015086 0.096362054 0.016060343 -0.024090514 0.0080301715
000030 95 a7 9e 98 a6 a4 a9 94 9f b2 a1 98 a7 9b 9e 94
       -0.08030172 0.06424137 -0.0080301715 -0.0562112 0.0562112 0.04015086 0.08030172 -0.088331886 0.0 0.15257326 0.016060343 -0.0562112 0.06424137 -0.032120686 -0.0080301715 -0.088331886
000040 a5 9e a5 93 a0 ae 9b 97 9e 95 9e 8e a3 9a 9d a9
       0.048181027 -0.0080301715 0.048181027 -0.096362054 0.0080301715 0.120452575 -0.032120686 -0.06424137 -0.0080301715 -0.08030172 -0.0080301715 -0.13651292 0.032120686 -0.04015086 -0.016060343 0.08030172
000050 a7 a7 9f 99 9c 9f 9e a4 a1 96 ac ac 96 9d 9b 93
       0.06424137 0.06424137 0.0 -0.048181027 -0.024090514 0.0 -0.0080301715 0.04015086 0.016060343 -0.07227154 0.10439223 0.10439223 -0.07227154 -0.016060343 -0.032120686 -0.096362054
000060 98 94 96 9a 9b 8e 95 a0 a5 9a ab ae 97 a0 a1 9a
       -0.0562112 -0.088331886 -0.07227154 -0.04015086 -0.032120686 -0.13651292 -0.08030172 0.0080301715 0.048181027 -0.04015086 0.096362054 0.120452575 -0.06424137 0.0080301715 0.016060343 -0.04015086
000070 8e a3 a3 95 a5 79 b3 9b ab a3 a6 97 a1 9a 92 94
       -0.13651292 0.032120686 0.032120686 -0.08030172 0.048181027 -0.30514652 0.16060343 -0.032120686 0.096362054 0.032120686 0.0562112 -0.06424137 0.016060343 -0.04015086 -0.10439223 -0.088331886
000080 98 97 a3 8e a3 9d a0 9a a6 9a 9e 9e 9c a3 a2 98
       -0.0562112 -0.06424137 0.032120686 -0.13651292 0.032120686 -0.016060343 0.0080301715 -0.04015086 0.0562112 -0.04015086 -0.0080301715 -0.0080301715 -0.024090514 0.032120686 0.024090514 -0.0562112
000090 a1 9a 9e a1 99 9b 9e 93 a2 a6 aa a2 9d 9d 9e 9e
       0.016060343 -0.04015086 -0.0080301715 0.016060343 -0.048181027 -0.032120686 -0.0080301715 -0.096362054 0.024090514 0.0562112 0.088331886 0.024090514 -0.016060343 -0.016060343 -0.0080301715 -0.0080301715
0000a0 a3 97 a4 9b a3 9f 98 9b 9f 96 9b a0 a5 97 a5 9d
       0.032120686 -0.06424137 0.04015086 -0.032120686 0.032120686 0.0 -0.0562112 -0.032120686 0.0 -0.07227154 -0.032120686 0.0080301715 0.048181027 -0.06424137 0.048181027 -0.016060343
0000b0 9a a5 a1 9f 9f a7 a0 96 98 a9 9f 95 9a 97 99 8e
       -0.04015086 0.048181027 0.016060343 0.0 0.0 0.06424137 0.0080301715 -0.07227154 -0.0562112 0.08030172 0.0 -0.08030172 -0.04015086 -0.06424137 -0.048181027 -0.13651292
0000c0 a0 9a ae 95 9c af 9f 96 9f 8b 97 8d a8 9d a2 a0
       0.0080301715 -0.04015086 0.120452575 -0.08030172 -0.024090514 0.12848274 0.0 -0.07227154 0.0 -0.16060343 -0.06424137 -0.14454308 0.07227154 -0.016060343 0.024090514 0.0080301715
0000d0 a8 b0 97 a3 9b 9f 98 a0 94 8d 9f 9d a2 a2 a4 93
       0.07227154 0.13651292 -0.06424137 0.032120686 -0.032120686 0.0 -0.0562112 0.0080301715 -0.088331886 -0.14454308 0.0 -0.016060343 0.024090514 0.024090514 0.04015086 -0.096362054
0000e0 99 99 9c ac 98 8c 8e a0 aa 99 9a 94 a2 a5 9c 9b
       -0.048181027 -0.048181027 -0.024090514 0.10439223 -0.0562112 -0.15257326 -0.13651292 0.0080301715 0.088331886 -0.048181027 -0.04015086 -0.088331886 0.024090514 0.048181027 -0.024090514 -0.032120686
0000f0 90 a8 9f a5 a9 92 9e 9f a6 ad 92 9d ab 9c 9e 99
       -0.120452575 0.07227154 0.0 0.048181027 0.08030172 -0.10439223 -0.0080301715 0.0 0.0562112 0.1124224 -0.10439223 -0.016060343 0.096362054 -0.024090514 -0.0080301715 -0.048181027

inference/coefficients/local/conv2/weights u1 [64, 3, 3, 64] scale=0.0071315505 zero_point=117
000000 75 75 75 75 75 75 75 75 75 75 75 75 75 75 75 75
       0.0 0.0 0.0 0.0 0.0 0.0 0.0 0.0 0.0 0.0 0.0 0.0 0.0 0.0 0.0 0.0
000010 75 75 75 75 75 75 75 75 75 75 75 75 75 75 75 75
       0.0 0.0 0.0 0.0 0.0 0.0 0.0 0.0 0.0 0.0 0.0 0.0 0.0 0.0 0.0 0.0
000020 75 75 75 75 75 75 75 75 75 75 75 75 75 75 75 75
       0.0 0.0 0.0 0.0 0.0 0.0 0.0 0.0 0.0 0.0 0.0 0.0 0.0 0.0 0.0 0.0
000030 75 75 75 75 75 75 75 75 75 75 75 75 75 75 75 75
       0.0 0.0 0.0 0.0 0.0 0.0 0.0 0.0 0.0 0.0 0.0 0.0 0.0 0.0 0.0 0.0
000040 75 75 75 75 75 75 75 75 75 75 75 75 75 75 75 75
       0.0 0.0 0.0 0.0 0.0 0.0 0.0 0.0 0.0 0.0 0.0 0.0 0.0 0.0 0.0 0.0
000050 75 75 75 75 75 75 75 75 75 75 75 75 75 75 75 75
       0.0 0.0 0.0 0.0 0.0 0.0 0.0 0.0 0.0 0.0 0.0 0.0 0.0 0.0 0.0 0.0
000060 75 75 75 75 75 75 75 75 75 75 75 75 75 75 75 75
       0.0 0.0 0.0 0.0 0.0 0.0 0.0 0.0 0.0 0.0 0.0 0.0 0.0 0.0 0.0 0.0
000070 75 75 75 75 75 75 75 75 75 75 75 75 75 75 75 75
       0.0 0.0 0.0 0.0 0.0 0.0 0.0 0.0 0.0 0.0 0.0 0.0 0.0 0.0 0.0 0.0
000080 75 75 75 75 75 75 75 75 75 75 75 75 75 75 75 75
       0.0 0.0 0.0 0.0 0.0 0.0 0.0 0.0 0.0 0.0 0.0 0.0 0.0 0.0 0.0 0.0
000090 75 75 75 75 75 75 75 75 75 75 75 75 75 75 75 75
       0.0 0.0 0.0 0.0 0.0 0.0 0.0 0.0 0.0 0.0 0.0 0.0 0.0 0.0 0.0 0.0
0000a0 75 75 75 75 75 75 75 75 75 75 75 75 75 75 75 75
       0.0 0.0 0.0 0.0 0.0 0.0 0.0 0.0 0.0 0.0 0.0 0.0 0.0 0.0 0.0 0.0
0000b0 75 75 75 75 75 75 75 75 75 75 75 75 75 75 75 75
       0.0 0.0 0.0 0.0 0.0 0.0 0.0 0.0 0.0 0.0 0.0 0.0 0.0 0.0 0.0 0.0
0000c0 75 75 75 75 75 75 75 75 75 75 75 75 75 75 75 75
       0.0 0.0 0.0 0.0 0.0 0.0 0.0 0.0 0.0 0.0 0.0 0.0 0.0 0.0 0.0 0.0
0000d0 75 75 75 75 75 75 75 75 75 75 75 75 75 75 75 75
       0.0 0.0 0.0 0.0 0.0 0.0 0.0 0.0 0.0 0.0 0.0 0.0 0.0 0.0 0.0 0.0
0000e0 75 75 75 75 75 75 75 75 75 75 75 75 75 75 75 75
       0.0 0.0 0.0 0.0 0.0 0.0 0.0 0.0 0.0 0.0 0.0 0.0 0.0 0.0 0.0 0.0
0000f0 75 75 75 75 75 75 75 75 75 75 75 75 75 75 75 75
       0.0 0.0 0.0 0.0 0.0 0.0 0.0 0.0 0.0 0.0 0.0 0.0 0.0 0.0 0.0 0.0

inference/coefficients/prediction/conv1/weights u1 [96, 1, 1, 64] scale=0.01808188 zero_point=112
000000 70 70 a4 9e 70 6c ae a0 97 70 2c 4e 9a 70 4e 24
       0.0 0.0 0.9402577 0.8317664 0.0 -0.07232752 1.1210765 0.8679302 0.7051933 0.0 -1.2295678 -0.6147839 0.75943893 0.0 -0.6147839 -1.3742229
000010 70 df 65 9d 72 de 70 4f 70 70 70 70 53 70 a4 70
       0.0 2.0070887 -0.19890067 0.8136846 0.03616376 1.9890068 0.0 -0.59670204 0.0 0.0 0.0 0.0 -0.5243745 0.0 0.9402577 0.0
000020 bb 9d 70 70 70 91 ae 70 70 92 da 6c 43 a3 c3 70
       1.356141 0.8136846 0.0 0.0 0.0 0.59670204 1.1210765 0.0 0.0 0.6147839 1.9166791 -0.07232752 -0.8136846 0.9221758 1.500796 0.0
000030 70 2a 70 29 70 70 70 70 86 c6 a5 f6 8e 6f 71 95
       0.0 -1.2657316 0.0 -1.2838135 0.0 0.0 0.0 0.0 0.39780134 1.5550417 0.9583396 2.4229717 0.5424564 -0.01808188 0.01808188 0.66902953
000040 70 70 81 6b 70 7a 76 72 74 70 7d 78 69 70 47 65
       0.0 0.0 0.30739194 -0.0904094 0.0 0.1808188 0.10849127 0.03616376 0.07232752 0.0 0.23506443 0.14465503 -0.12657316 0.0 -0.741357 -0.19890067
000050 70 3e 7f 88 6f 46 70 a3 70 70 70 70 44 70 7e 70
       0.0 -0.904094 0.2712282 0.4339651 -0.01808188 -0.75943893 0.0 0.9221758 0.0 0.0 0.0 0.0 -0.7956027 0.0 0.25314632 0.0
000060 72 76 70 70 70 41 95 70 70 82 50 6f 82 7c 60 70
       0.03616376 0.10849127 0.0 0.0 0.0 -0.84984833 0.66902953 0.0 0.0 0.32547382 -0.57862014 -0.01808188 0.32547382 0.21698254 -0.28931007 0.0
000070 70 60 70 5e 70 70 70 70 87 5b 73 73 7f 74 74 9a
       0.0 -0.28931007 0.0 -0.32547382 0.0 0.0 0.0 0.0 0.4158832 -0.37971947 0.054245636 0.054245636 0.2712282 0.07232752 0.07232752 0.75943893
000080 70 70 87 78 70 64 50 80 5f 70 75 6d 7c 70 6e 72
       0.0 0.0 0.4158832 0.14465503 0.0 -0.21698254 -0.57862014 0.28931007 -0.30739194 0.0 0.0904094 -0.054245636 0.21698254 0.0 -0.03616376 0.03616376
000090 70 6a 6c 6a 80 61 70 8e 70 70 70 70 7d 70 60 70
       0.0 -0.10849127 -0.07232752 -0.10849127 0.28931007 -0.2712282 0.0 0.5424564 0.0 0.0 0.0 0.0 0.23506443 0.0 -0.28931007 0.0
0000a0 62 75 70 70 70 65 76 70 70 76 74 9a 71 6e 53 70
       -0.25314632 0.0904094 0.0 0.0 0.0 -0.19890067 0.10849127 0.0 0.0 0.10849127 0.07232752 0.75943893 0.01808188 -0.03616376 -0.5243745 0.0
0000b0 70 87 70 75 70 70 70 70 7e 68 7f 6b 6b 6b 77 7a
       0.0 0.4158832 0.0 0.0904094 0.0 0.0 0.0 0.0 0.25314632 -0.14465503 0.2712282 -0.0904094 -0.0904094 -0.0904094 0.12657316 0.1808188
0000c0 70 70 6f 6d 70 63 5e 6e 66 70 79 75 68 70 6f 6f
       0.0 0.0 -0.01808188 -0.054245636 0.0 -0.23506443 -0.32547382 -0.03616376 -0.1808188 0.0 0.16273691 0.0904094 -0.14465503 0.0 -0.01808188 -0.01808188
0000d0 70 64 87 69 66 64 70 69 70 70 70 70 75 70 6f 70
       0.0 -0.21698254 0.4158832 -0.12657316 -0.1808188 -0.21698254 0.0 -0.12657316 0.0 0.0 0.0 0.0 0.0904094 0.0 -0.01808188 0.0
0000e0 72 6a 70 70 70 6f 67 70 70 7d 76 80 7d 73 62 70
       0.03616376 -0.10849127 0.0 0.0 0.0 -0.01808188 -0.16273691 0.0 0.0 0.23506443 0.10849127 0.28931007 0.23506443 0.054245636 -0.25314632 0.0
0000f0 70 63 70 73 70 70 70 70 6b 73 77 70 73 6f 70 7f
       0.0 -0.23506443 0.0 0.054245636 0.0 0.0 0.0 0.0 -0.0904094 0.054245636 0.12657316 0.0 0.054245636 -0.01808188 0.0 0.2712282

inference/coefficients/splat/conv1/weights u1 [8, 3, 3, 3] scale=0.007927636 zero_point=157
000000 7c e2 90 42 a0 88 47 d1 78 39 73 70 3f 6b 8f 55
       -0.26161197 0.54700685 -0.10305926 -0.72141486 0.023782907 -0.16648035 -0.68177664 0.41223705 -0.29332253 -0.7927636 -0.3329607 -0.3567436 -0.7451978 -0.3963818 -0.1109869 -0.57078975
000010 a3 a8 5a 72 8b 00 9e 63 70 b0 d1 86 d9 74 a1 97
       0.047565814 0.087203994 -0.5311516 -0.34088832 -0.14269744 -1.2446388 0.007927636 -0.45980287 -0.3567436 0.15062508 0.41223705 -0.18233562 0.47565815 -0.32503307 0.031710543 -0.047565814
000020 ac 9b a4 75 81 9c d8 52 da 87 a8 af 9d ba c5 99
       0.11891454 -0.015855271 0.05549345 -0.3171054 -0.2219738 -0.007927636 0.4677305 -0.59457266 0.48358577 -0.17440799 0.087203994 0.14269744 0.0 0.22990143 0.3171054 -0.031710543
000030 90 c7 ca 85 f9 4e 8f 95 96 87 90 a7 d5 a7 9a 9d
       -0.10305926 0.3329607 0.3567436 -0.19026326 0.72934246 -0.6262832 -0.1109869 -0.063421085 -0.05549345 -0.17440799 -0.10305926 0.07927635 0.4439476 0.07927635 -0.023782907 0.0
000040 c3 a9 c8 a1 9a ac 7f 96 e9 94 c2 b6 97 cc aa 9f
       0.30125016 0.09513163 0.34088832 0.031710543 -0.023782907 0.11891454 -0.23782907 -0.05549345 0.6025003 -0.07134872 0.29332253 0.1981909 -0.047565814 0.3725989 0.10305926 0.015855271
000050 85 a5 9a 0c dc 77 51 c4 ff 34 a0 87 31 6b 97 5a
       -0.19026326 0.063421085 -0.023782907 -1.1495072 0.49944106 -0.30125016 -0.6025003 0.3091778 0.7769083 -0.83240175 0.023782907 -0.17440799 -0.85618466 -0.3963818 -0.047565814 -0.5311516
000060 b2 dc 63 b5 86 62 98 9f 46 b2 b7 51 bd ab 71 bb
       0.16648035 0.49944106 -0.45980287 0.19026326 -0.18233562 -0.4677305 -0.039638177 0.015855271 -0.6897043 0.16648035 0.20611852 -0.6025003 0.25368434 0.1109869 -0.34881598 0.23782907
000070 92 9b 92 b4 3f 8e a4 92 c8 af 56 a9 88 7b c8 a5
       -0.087203994 -0.015855271 -0.087203994 0.18233562 -0.7451978 -0.11891454 0.05549345 -0.087203994 0.34088832 0.14269744 -0.56286216 0.09513163 -0.16648035 -0.26953962 0.34088832 0.063421085
000080 71 99 cb 72 a9 76 9d cc 86 81 c5 d5 62 bc 7e b0
       -0.34881598 -0.031710543 0.36467123 -0.34088832 0.09513163 -0.3091778 0.0 0.3725989 -0.18233562 -0.2219738 0.3171054 0.4439476 -0.4677305 0.2457567 -0.2457567 0.15062508
000090 a3 b4 76 95 8a 82 d1 af 7b 62 c6 82 b8 b8 4f a3
       0.047565814 0.18233562 -0.3091778 -0.063421085 -0.15062508 -0.21404617 0.41223705 0.14269744 -0.26953962 -0.4677305 0.32503307 -0.21404617 0.21404617 0.21404617 -0.6183556 0.047565814
0000a0 de 9d b9 df 73 67 c8 79 67 c3 a8 bb ce 57 5f fb
       0.51529634 0.0 0.2219738 0.52322394 -0.3329607 -0.42809233 0.34088832 -0.28539488 -0.42809233 0.30125016 0.087203994 0.23782907 0.38845414 -0.5549345 -0.4915134 0.7451978
0000b0 93 6f b2 c6 4b b7 a1 a6 a9 97 c5 76 87 a5 8d bf
       -0.07927635 -0.36467123 0.16648035 0.32503307 -0.65006614 0.20611852 0.031710543 0.07134872 0.09513163 -0.047565814 0.3171054 -0.3091778 -0.17440799 0.063421085 -0.12684217 0.26953962
0000c0 af 6e 8f cd 84 c7 90 74 b8 91 9c d4 59 90 a6 aa
       0.14269744 -0.3725989 -0.1109869 0.3805265 -0.1981909 0.3329607 -0.10305926 -0.32503307 0.21404617 -0.09513163 -0.007927636 0.43601996 -0.53907925 -0.10305926 0.07134872 0.10305926
0000d0 a0 84 86 95 b2 be b2 c4
       0.023782907 -0.1981909 -0.18233562 -0.063421085 0.16648035 0.26161197 0.16648035 0.3091778

inference/coefficients/splat/conv2/weights u1 [16, 3, 3, 8] scale=0.011113792 zero_point=183
000000 c9 aa ad ed c2 b0 b4 b3 cd ca cc cf a7 c2 bb a4
       0.20004825 -0.14447929 -0.11113792 0.60014474 0.12225171 -0.07779654 -0.033341374 -0.044455167 0.24450342 0.21116205 0.23338963 0.266731 -0.17782067 0.12225171 0.044455167 -0.21116205
000010 a9 c0 a6 b7 c6 b7 b0 c3 d7 bf 95 e6 b0 a7 cf b8
       -0.15559308 0.10002413 -0.18893446 0.0 0.16670687 0.0 -0.07779654 0.1333655 0.35564134 0.088910334 -0.37786892 0.5223482 -0.07779654 -0.17782067 0.266731 0.011113792
000020 bd d4 b1 ac 9c a1 cf b9 b2 d7 c8 bc a7 b5 b9 d2
       0.06668275 0.32229996 -0.06668275 -0.12225171 -0.30007237 -0.24450342 0.266731 0.022227583 -0.05556896 0.35564134 0.18893446 0.05556896 -0.17782067 -0.022227583 0.022227583 0.30007237
000030 d9 cd a3 cb b7 b8 c3 d5 c4 d0 94 b5 b3 97 cd cb
       0.37786892 0.24450342 -0.22227584 0.22227584 0.0 0.011113792 0.1333655 0.33341375 0.14447929 0.2778448 -0.3889827 -0.022227583 -0.044455167 -0.35564134 0.24450342 0.22227584
000040 bc c7 b3 ad 96 b4 b6 a8 d5 bc d3 a8 d4 c0 d6 b2
       0.05556896 0.17782067 -0.044455167 -0.11113792 -0.36675513 -0.033341374 -0.011113792 -0.16670687 0.33341375 0.05556896 0.31118616 -0.16670687 0.32229996 0.10002413 0.34452754 -0.05556896
000050 cf c5 b9 d4 a9 cc d5 c8 ad be b0 c7 cb b1 d5 c3
       0.266731 0.15559308 0.022227583 0.32229996 -0.15559308 0.23338963 0.33341375 0.18893446 -0.11113792 0.07779654 -0.07779654 0.17782067 0.22227584 -0.06668275 0.33341375 0.1333655
000060 c6 b9 c8 bc b1 d1 c1 c7 c1 aa b2 c2 cc a8 b2 be
       0.16670687 0.022227583 0.18893446 0.05556896 -0.06668275 0.28895858 0.11113792 0.17782067 0.11113792 -0.14447929 -0.05556896 0.12225171 0.23338963 -0.16670687 -0.05556896 0.07779654
000070 9d b2 be ca bc c2 c2 b6 aa a6 b5 c9 ba bd b7 a9
       -0.28895858 -0.05556896 0.07779654 0.21116205 0.05556896 0.12225171 0.12225171 -0.011113792 -0.14447929 -0.18893446 -0.022227583 0.20004825 0.033341374 0.06668275 0.0 -0.15559308
000080 9b c0 bc b4 b4 b6 ba c0 82 ba a4 a9 be ac bb b5
       -0.31118616 0.10002413 0.05556896 -0.033341374 -0.033341374 -0.011113792 0.033341374 0.10002413 -0.589031 0.033341374 -0.21116205 -0.15559308 0.07779654 -0.12225171 0.044455167 -0.022227583
000090 e1 9d a0 97 b5 9a c0 b5 ec ac a0 ab c2 b0 c1 b4
       0.46677926 -0.28895858 -0.2556172 -0.35564134 -0.022227583 -0.32229996 0.10002413 -0.022227583 0.589031 -0.12225171 -0.2556172 -0.1333655 0.12225171 -0.07779654 0.11113792 -0.033341374
0000a0 ce ba a9 b5 b7 cd d7 d0 e9 b5 9f 99 cd 94 b4 ad
       0.2556172 0.033341374 -0.15559308 -0.022227583 0.0 0.24450342 0.35564134 0.2778448 0.5556896 -0.022227583 -0.266731 -0.33341375 0.24450342 -0.3889827 -0.033341374 -0.11113792
0000b0 b9 c4 a8 94 bd ae bf d3 c3 b0 a9 b2 a9 c2 b8 bc
       0.022227583 0.14447929 -0.16670687 -0.3889827 0.06668275 -0.10002413 0.088910334 0.31118616 0.1333655 -0.07779654 -0.15559308 -0.05556896 -0.15559308 0.12225171 0.011113792 0.05556896
0000c0 a9 dc b7 94 b5 b8 a7 c8 97 ac cc a1 bb b6 b9 aa
       -0.15559308 0.4112103 0.0 -0.3889827 -0.022227583 0.011113792 -0.17782067 0.18893446 -0.35564134 -0.12225171 0.23338963 -0.24450342 0.044455167 -0.011113792 0.022227583 -0.14447929
0000d0 8b bf c6 b3 a0 b8 a9 c1 bf c0 b2 b6 bd c2 c8 bd
       -0.48900685 0.088910334 0.16670687 -0.044455167 -0.2556172 0.011113792 -0.15559308 0.11113792 0.088910334 0.10002413 -0.05556896 -0.011113792 0.06668275 0.12225171 0.18893446 0.06668275
0000e0 a7 cd af a7 be c2 cd a1 bc b0 b3 bd b9 bd de aa
       -0.17782067 0.24450342 -0.088910334 -0.17782067 0.07779654 0.12225171 0.24450342 -0.24450342 0.05556896 -0.07779654 -0.044455167 0.06668275 0.022227583 0.06668275 0.43343788 -0.14447929
0000f0 c7 ce a3 b9 b2 b2 e5 a4 b2 cc b1 cc d6 be e3 a1
       0.17782067 0.2556172 -0.22227584 0.022227583 -0.05556896 -0.05556896 0.5112344 -0.21116205 -0.05556896 0.23338963 -0.06668275 0.23338963 0.34452754 0.07779654 0.48900685 -0.24450342

inference/coefficients/splat/conv3/weights u1 [32, 3, 3, 16] scale=0.0056728083 zero_point=163
000000 a7 9c a9 9e ae 93 8f 94 b4 a4 24 b1 8f a5 3a b1
       0.022691233 -0.039709657 0.03403685 -0.028364042 0.062400892 -0.09076493 -0.11345617 -0.08509213 0.09643774 0.0056728083 -0.72044665 0.079419315 -0.11345617 0.011345617 -0.5956449 0.079419315
000010 98 94 8d a2 8e 9a b3 b2 8a a2 39 96 af 92 37 9f
       -0.062400892 -0.08509213 -0.124801785 -0.0056728083 -0.11912897 -0.051055275 0.09076493 0.08509213 -0.1418202 -0.0056728083 -0.6013177 -0.07374651 0.0680737 -0.09643774 -0.61266327 -0.022691233
000020 98 86 b8 c2 89 8a ae ce a4 b4 75 c1 7f 68 35 85
       -0.062400892 -0.16451144 0.11912897 0.17585705 -0.14749302 -0.1418202 0.062400892 0.24393076 0.0056728083 0.09643774 -0.2609492 0.17018425 -0.2042211 -0.3346957 -0.6240089 -0.17018425
000030 b6 78 bc 94 8c 89 7b 7b 8f 8f 3e 98 87 cb 20 c1
       0.107783355 -0.24393076 0.1418202 -0.08509213 -0.1304746 -0.14749302 -0.22691233 -0.22691233 -0.11345617 -0.11345617 -0.57295364 -0.062400892 -0.15883863 0.22691233 -0.7431379 0.17018425
000040 7b 84 af 9c 59 8d 86 75 8c a6 30 ae b2 b0 25 a3
       -0.22691233 -0.17585705 0.0680737 -0.039709657 -0.41978782 -0.124801785 -0.16451144 -0.2609492 -0.1304746 0.017018424 -0.65237296 0.062400892 0.08509213 0.07374651 -0.71477383 0.0
000050 98 8a c1 a7 a9 b8 a9 a4 9c b6 66 b4 9a 6b 59 94
       -0.062400892 -0.1418202 0.17018425 0.022691233 0.03403685 0.11912897 0.03403685 0.0056728083 -0.039709657 0.107783355 -0.3460413 0.09643774 -0.051055275 -0.31767726 -0.41978782 -0.08509213
000060 d8 84 a5 9a aa 95 a8 b9 af b0 73 9d 99 cc 55 c0
       0.30065885 -0.17585705 0.011345617 -0.051055275 0.039709657 -0.079419315 0.028364042 0.124801785 0.0680737 0.07374651 -0.2722948 -0.03403685 -0.056728084 0.23258513 -0.44247904 0.16451144
000070 a0 7c be 8b ae ad 80 b6 77 b6 5b 9c a6 ab 34 af
       -0.017018424 -0.22123952 0.15316582 -0.1361474 0.062400892 0.056728084 -0.19854829 0.107783355 -0.24960357 0.107783355 -0.4084422 -0.039709657 0.017018424 0.045382466 -0.6296817 0.0680737
000080 ac 8e 9c bb c5 b3 a1 a8 9e a2 88 b1 be 8f 8e bc
       0.051055275 -0.11912897 -0.039709657 0.1361474 0.19287547 0.09076493 -0.011345617 0.028364042 -0.028364042 -0.0056728083 -0.15316582 0.079419315 0.15316582 -0.11345617 -0.11912897 0.1418202
000090 73 87 90 8f 86 b3 a9 92 84 ae a2 ca 99 a4 a9 9d
       -0.2722948 -0.15883863 -0.107783355 -0.11345617 -0.16451144 0.09076493 0.03403685 -0.09643774 -0.17585705 0.062400892 -0.0056728083 0.22123952 -0.056728084 0.0056728083 0.03403685 -0.03403685
0000a0 7f 82 a6 88 a4 9a a7 a2 7b a2 99 a5 98 b1 ba d3
       -0.2042211 -0.18720268 0.017018424 -0.15316582 0.0056728083 -0.051055275 0.022691233 -0.0056728083 -0.22691233 -0.0056728083 -0.056728084 0.011345617 -0.062400892 0.079419315 0.1304746 0.2722948
0000b0 95 98 91 98 ba 9b b7 a3 8f 89 a7 b7 8e bc a3 c7
       -0.079419315 -0.062400892 -0.10211055 -0.062400892 0.1304746 -0.045382466 0.11345617 0.0 -0.11345617 -0.14749302 0.022691233 0.11345617 -0.11912897 0.1418202 0.0 0.2042211
0000c0 8d 89 6e 81 89 a7 a4 ad 68 9f 9c c6 8d a5 ae cb
       -0.124801785 -0.14749302 -0.30065885 -0.19287547 -0.14749302 0.022691233 0.0056728083 0.056728084 -0.3346957 -0.022691233 -0.039709657 0.19854829 -0.124801785 0.011345617 0.062400892 0.22691233
0000d0 a2 9d 91 86 a2 91 a1 a8 89 8e af 9e 75 a0 c1 aa
       -0.0056728083 -0.03403685 -0.10211055 -0.16451144 -0.0056728083 -0.10211055 -0.011345617 0.028364042 -0.14749302 -0.11912897 0.0680737 -0.028364042 -0.2609492 -0.017018424 0.17018425 0.039709657
0000e0 81 9d b1 aa bc 7b 93 9e 8d a0 ac 99 89 ba c0 b9
       -0.19287547 -0.03403685 0.079419315 0.039709657 0.1418202 -0.22691233 -0.09076493 -0.028364042 -0.124801785 -0.017018424 0.051055275 -0.056728084 -0.14749302 0.1304746 0.16451144 0.124801785
0000f0 94 8c 76 a0 95 98 b5 c3 97 78 b5 9c 7c ae a4 ca
       -0.08509213 -0.1304746 -0.25527638 -0.017018424 -0.079419315 -0.062400892 0.10211055 0.18152986 -0.0680737 -0.24393076 0.10211055 -0.039709657 -0.22123952 0.062400892 0.0056728083 0.22123952

inference/coefficients/splat/conv4/weights u1 [64, 3, 3, 32] scale=0.005669824 zero_point=162
000000 72 a1 a8 99 9e b1 94 96 8d 8d a4 a6 a0 88 c7 bc
       -0.27215153 -0.005669824 0.03401894 -0.051028416 -0.022679295 0.08504736 -0.07937753 -0.06803788 -0.1190663 -0.1190663 0.011339648 0.022679295 -0.011339648 -0.14741541 0.20978348 0.14741541
000010 a4 88 95 8a a4 93 aa 95 a6 d0 9a 84 92 b5 9d 89
       0.011339648 -0.14741541 -0.07370771 -0.13607576 0.011339648 -0.08504736 0.04535859 -0.07370771 0.022679295 0.2608119 -0.04535859 -0.17009471 -0.09071718 0.107726656 -0.02834912 -0.1417456
000020 79 8e 9d 87 ce b8 96 9c 93 9d a7 b7 9d a9 bd ae
       -0.23246278 -0.11339648 -0.02834912 -0.15308525 0.24947225 0.12473612 -0.06803788 -0.03401894 -0.08504736 -0.02834912 0.02834912 0.1190663 -0.02834912 0.039688766 0.15308525 0.06803788
000030 97 7d 95 92 bc a2 a4 8f 93 af 92 95 87 a4 b0 8b
       -0.06236806 -0.20978348 -0.07370771 -0.09071718 0.14741541 0.0 0.011339648 -0.107726656 -0.08504736 0.07370771 -0.09071718 -0.07370771 -0.15308525 0.011339648 0.07937753 -0.13040595
000040 93 ab 82 92 b7 9c bc 97 92 ad c2 b9 9e a7 aa a7
       -0.08504736 0.051028416 -0.18143436 -0.09071718 0.1190663 -0.03401894 0.14741541 -0.06236806 -0.09071718 0.06236806 0.18143436 0.13040595 -0.022679295 0.02834912 0.04535859 0.02834912
000050 8d a7 94 92 a8 a4 c2 a7 9f a9 91 a5 8f 97 a5 9a
       -0.1190663 0.02834912 -0.07937753 -0.09071718 0.03401894 0.011339648 0.18143436 0.02834912 -0.01700947 0.039688766 -0.09638701 0.01700947 -0.107726656 -0.06236806 0.01700947 -0.04535859
000060 6e ac 8d ba d1 b4 7e 92 95 8d b5 ac a7 94 aa a8
       -0.29483083 0.05669824 -0.1190663 0.13607576 0.26648173 0.10205683 -0.20411366 -0.09071718 -0.07370771 -0.1190663 0.107726656 0.05669824 0.02834912 -0.07937753 0.04535859 0.03401894
000070 96 8a 9a 84 b3 85 a3 a4 9a ba 7b 8c 8c c1 aa 83
       -0.06803788 -0.13607576 -0.04535859 -0.17009471 0.09638701 -0.1644249 0.005669824 0.011339648 -0.04535859 0.13607576 -0.22112313 -0.12473612 -0.12473612 0.17576455 0.04535859 -0.17576455
000080 75 80 90 90 ba a1 86 8c a8 8b bd a7 99 9b c5 a3
       -0.25514206 -0.19277401 -0.10205683 -0.10205683 0.13607576 -0.005669824 -0.15875506 -0.12473612 0.03401894 -0.13040595 0.15308525 0.02834912 -0.051028416 -0.039688766 0.19844383 0.005669824
000090 b1 87 a0 7d a8 91 a3 a5 85 cc 92 8f 8a b9 93 63
       0.08504736 -0.15308525 -0.011339648 -0.20978348 0.03401894 -0.09638701 0.005669824 0.01700947 -0.1644249 0.2381326 -0.09071718 -0.107726656 -0.13607576 0.13040595 -0.08504736 -0.3571989
0000a0 89 a6 97 94 bf 9e 9a 8c ae a3 a0 9b a3 99 ba af
       -0.1417456 0.022679295 -0.06236806 -0.07937753 0.1644249 -0.022679295 -0.04535859 -0.12473612 0.06803788 0.005669824 -0.011339648 -0.039688766 0.005669824 -0.051028416 0.13607576 0.07370771
0000b0 97 82 86 87 a1 a7 9d be 7c b4 a6 9b 88 a1 aa 91
       -0.06236806 -0.18143436 -0.15875506 -0.15308525 -0.005669824 0.02834912 -0.02834912 0.15875506 -0.21545331 0.10205683 0.022679295 -0.039688766 -0.14741541 -0.005669824 0.04535859 -0.09638701
0000c0 81 c2 94 b5 c5 b3 9c 9d b4 b1 bb 99 ab ac b7 b1
       -0.18710418 0.18143436 -0.07937753 0.107726656 0.19844383 0.09638701 -0.03401894 -0.02834912 0.10205683 0.08504736 0.1417456 -0.051028416 0.051028416 0.05669824 0.1190663 0.08504736
0000d0 a3 8d a1 9d 96 9a a9 a4 a7 a1 97 93 96 aa 9a 98
       0.005669824 -0.1190663 -0.005669824 -0.02834912 -0.06803788 -0.04535859 0.039688766 0.011339648 0.02834912 -0.005669824 -0.06236806 -0.08504736 -0.06803788 0.04535859 -0.04535859 -0.05669824
0000e0 7b 98 79 ac be b6 92 99 b5 b8 b4 9f 95 96 b1 b9
       -0.22112313 -0.05669824 -0.23246278 0.05669824 0.15875506 0.11339648 -0.09071718 -0.051028416 0.107726656 0.12473612 0.10205683 -0.01700947 -0.07370771 -0.06803788 0.08504736 0.13040595
0000f0 97 8c 87 81 b6 94 93 a7 9e b7 8e 8a 95 b8 a2 af
       -0.06236806 -0.12473612 -0.15308525 -0.18710418 0.11339648 -0.07937753 -0.08504736 0.02834912 -0.022679295 0.1190663 -0.11339648 -0.13607576 -0.07370771 0.12473612 0.0 0.07370771
