assets/hotword_float.tflite (tflite, 577296 bytes, 31 tensors)

feature_weights1 f4 [288, 40]
0	0x3b4b5f88	0.0031032283
1	0xbc2066e3	-0.009790155
2	0x3b99c869	0.00469308
3	0xbccff7e6	-0.025386762
4	0xbc939861	-0.018016996
5	0xbc53ff69	-0.0129393125
6	0x3c9d7238	0.019219503
7	0xbd0066b2	-0.031347938
8	0x3d82aac3	0.063802265
9	0xbd8e34cf	-0.06943666
10	0x3d3df748	0.046378404
11	0xbdc92290	-0.098210454
12	0x3d6b21df	0.05740535
13	0xbdac2fd2	-0.084075585
14	0x3cf44329	0.02981718
15	0xbe166495	-0.14686806
16	0xbc9644ff	-0.018343447
17	0xbe586a37	-0.21134268
18	0xbdeb3eea	-0.11486609
19	0xbed5a151	-0.41724637
20	0xbe84291d	-0.25812617
21	0xbf2a8c37	-0.666202
22	0xbe992258	-0.29909015
23	0xbf2a4210	-0.66507053
24	0xbeafd762	-0.34344012
25	0xbf22efc3	-0.636471
26	0xbe73fad8	-0.23826158
27	0xbed04db0	-0.4068427
28	0xbd9c4b77	-0.07631581
29	0xbe321b29	-0.17393173
30	0xbd7b6f19	-0.061385248
31	0xbe0568a7	-0.13028203
32	0xbd11e359	-0.035617206
33	0x3c7ffb0a	0.015623817
34	0xbca8f5d6	-0.020625036
35	0x3da6ea8f	0.08150207
36	0x3bf42163	0.007450269
37	0x3dc35dec	0.095393986
38	0x3d3791b6	0.044816695
39	0x3e0fcd82	0.14043239
40	0xbbeb604f	-0.0071831117
41	0x3ce927b6	0.028461318
42	0x3b41e833	0.0029587864
43	0x3c1aac5b	0.009440507
44	0x3c5eea65	0.013605689
45	0x3cb8a66b	0.022540292
46	0x3bbd1d1c	0.0057712924
47	0x3db109fb	0.08644482
48	0xb90b3a10	-0.00013277703
49	0xbc9bfc01	-0.019041063
50	0x3ca10ee4	0.01966042
51	0xbec6d37e	-0.3883323
52	0x3d1ee030	0.03878802
53	0xbfbe5c33	-1.4871887
54	0x3e347339	0.17622079
55	0xbfbe0223	-1.4844402
56	0x3e4e2403	0.20130925
57	0xbf9cf17b	-1.2261194
58	0x3d70cc3b	0.05878852
59	0xbcbb9230	-0.022896856
60	0x3c941093	0.01807431
61	0x3d1b3f13	0.03790195
62	0xbc1e5c5c	-0.009665575
63	0x3ce2d956	0.027691524
64	0xbb852925	-0.0040637427
65	0xbbc5704a	-0.006025349
66	0xbc3fc17f	-0.011703848
67	0x3d2db2b5	0.042406756
68	0x3b185dd9	0.0023249297
69	0x3d60e33a	0.0549042
70	0x3c78ad00	0.015177965
71	0x3cbe43c1	0.023225667
72	0xbbfe4098	-0.007759165
73	0x3ce5b211	0.02803901
74	0xbcd80d3c	-0.026373498
75	0x3c53dc39	0.012930923
76	0xbc3dcfb3	-0.011585164
77	0x3d873074	0.066010386
78	0xbc9c6b44	-0.019094117
79	0xbb5ffcfb	-0.0034177888
80	0xbdb1b256	-0.08676593
81	0x3da12b89	0.07869632
82	0x3a188a15	0.00058189157
83	0xbd762f11	-0.06010348
84	0x3ad11de1	0.0015954339
85	0xbda02017	-0.07818621
86	0xbc75b625	-0.01499704
87	0xbd84fe61	-0.064938314
88	0x3cb1a59d	0.021685416
89	0xbe0e30d7	-0.13885818
90	0xbcf8315f	-0.03029698
91	0xbdbd29b8	-0.09236473
92	0x3da8bc4c	0.0823904
93	0x3dfe2d9f	0.12411045
94	0x3e672db9	0.22576036
95	0x3ed51866	0.41620177
96	0x3e988600	0.29789734
97	0x3e5bffec	0.21484345
98	0xbe73eaf6	-0.23820099
99	0xbf77e9a8	-0.96840906
100	0xbf26b14b	-0.6511428
101	0xbe35c95f	-0.17752598
102	0x3dbd2f3c	0.09237525
103	0xbdc52288	-0.09625727
104	0xbcb6aa4d	-0.022298003
105	0x3ecc2c65	0.3987762
106	0x3efae84d	0.49005356
107	0x3ed670ec	0.41883028
108	0xbd7f1f68	-0.06228581
109	0x3c2fa03d	0.010719356
110	0xbd6fad47	-0.05851486
111	0xbdfecceb	-0.12441429
112	0xbd2e7a7d	-0.042597283
113	0x3d6cbb3b	0.057795744
114	0x3df8734a	0.12131365
115	0xbe45ed9a	-0.19328919
116	0x3e3cb94b	0.18430059
117	0xbe481735	-0.19540103
118	0xbdc76c83	-0.09737494
119	0x3e64aad6	0.22330794
120	0xbcdd697e	-0.027027842
121	0xbb97b4b0	-0.004629694
122	0xbc2dbc0d	-0.010603917
123	0xbcceeeba	-0.025260318
124	0xbc248e51	-0.0100436965
125	0x3c66def4	0.014091242
126	0xba00f5c7	-0.0004919436
127	0x3d22ebce	0.039775662
128	0x3a86fb57	0.0010298294
129	0x3cdc58b7	0.026897771
130	0x3be2e482	0.006924213
131	0x3bf29c13	0.0074038594
132	0x3bdc68a2	0.0067263404
133	0x3904d2a2	0.00012666968
134	0x3c23c5f7	0.009995929
135	0xbc8fa746	-0.017535817
136	0xbcc36407	-0.023851408
137	0xbd096ef3	-0.033553075
138	0x3c58156a	0.013188699
139	0xbd1d6055	-0.038421948
140	0x3c7fdbdf	0.015616386
141	0xbd992ffe	-0.07479857
142	0x3a5c2a23	0.0008398613
143	0x3bb64428	0.005562324
144	0xbb31168c	-0.0027021496
145	0xbbba6f79	-0.005689558
146	0xbb9ec0ce	-0.0048447615
147	0xbc01b0b2	-0.007915663
148	0xbc1436a8	-0.009046234
149	0xbe013564	-0.12618023
150	0xbd98b658	-0.07456654
151	0xbea5444d	-0.32278672
152	0xbe6c7a26	-0.23093471
153	0xbeef8f07	-0.4678881
154	0xbe6a2269	-0.22864689
155	0xbea0f0e6	-0.3143379
156	0xbdf43e43	-0.11925938
157	0xbedaedd0	-0.42759562
158	0xbee0611e	-0.43824095
159	0xbe1358c7	-0.14389335
160	0xbc9a41e7	-0.018830253
161	0x3b77e0ca	0.0037823194
162	0x3b9d03e2	0.0047917226
163	0xbca3d105	-0.01999713
164	0xbb96f659	-0.0046070036
165	0xbbcdbc14	-0.006278524
166	0x3c9fc3f2	0.019502614
167	0xbd942035	-0.072327055
168	0xbe89953b	-0.26871666
169	0x3ea05374	0.3131367
170	0x3f353aa1	0.70792586
171	0xbf80c40a	-1.0059826
172	0xbde3694d	-0.11104069
173	0x3ea027a4	0.31280243
174	0xbd7e9e74	-0.06216283
175	0xbd8d6c0f	-0.06905376
176	0xbc9159bd	-0.017742986
177	0x3b89df30	0.004207514
178	0x3d3bcec3	0.04585148
179	0x3cd2c85f	0.02573031
180	0x3d7a686e	0.06113475
181	0x3bf432c0	0.007452339
182	0x3d386600	0.04501915
183	0xbda129a1	-0.07869268
184	0xbdd5adb3	-0.10433521
185	0x3be07498	0.0068498366
186	0x3d8106be	0.06300114
187	0xbc333410	-0.010937706
188	0x3c6a7fe4	0.014312718
189	0xbc071df8	-0.008246891
190	0xbbb9fd33	-0.0056759357
191	0xbc2cbfd2	-0.01054378
192	0x3b6cf11a	0.003615445
193	0x3bb84e18	0.005624544
194	0xbb94b8c0	-0.0045386255
195	0x3aeff27a	0.0018306517
196	0x3be95905	0.0071212077
197	0x3c3aac29	0.011393585
198	0x3c6cbea3	0.014449748
199	0x3c2dffd4	0.010620076
200	0x3b4c4402	0.0031168466
201	0x3eaa6bdd	0.33285418
202	0xbe307e02	-0.17235568
203	0x3e3fae98	0.18718946
204	0xbe4e59cd	-0.20151444
205	0x3e186dad	0.14885588
206	0xbe92e1ef	-0.28688
207	0x3e9a67d3	0.30157337
208	0xbe2c3ae0	-0.16819334
209	0x3f35f129	0.71071106
210	0xbe39e0d9	-0.18152179
211	0x3f5ca578	0.86189985
212	0xbea659f3	-0.324905
213	0x3f56ad7b	0.8385846
214	0xbf0904c7	-0.53522915
215	0x3f7e9fdd	0.9946268
216	0xbf0758c6	-0.5286983
217	0x3f797867	0.97449344
218	0xbed1f40e	-0.4100651
219	0x3f061cfb	0.5238797
220	0xbe895401	-0.26821902
221	0x3ecdd6a5	0.40202823
222	0xbdfc392a	-0.12315591
223	0x3e85235b	0.26003537
224	0xbe4f6708	-0.20254147
225	0x3e88f74d	0.26751176
226	0xbe01343e	-0.12617585
227	0x3e45f661	0.19332267
228	0xbcbf4054	-0.023346104
229	0x3d9e4b7a	0.0772924
230	0xbd4eb207	-0.05046275
231	0xbe186533	-0.14882354
232	0x3cd3380c	0.025783561
233	0xbe19308e	-0.14959928
234	0x3e1d6f4a	0.15374485
235	0xbe70993c	-0.23495954
236	0x3d381c07	0.044948604
237	0xbeb205d2	-0.34770066
238	0x3e39e50c	0.1815378
239	0xbe44e1ba	-0.19226733
240	0xbdb25e6f	-0.08709418
241	0x3c007de5	0.007842516
242	0xbd39bf36	-0.04534837
243	0xbe56ab58	-0.209638
244	0x3c170b6e	0.009219034
245	0xbbfcdb63	-0.0077165826
246	0xbc0b7921	-0.008512766
247	0x3c018f27	0.007907665
248	0x3e400292	0.1875098
249	0xbd721f25	-0.059111733
250	0x3dcf4c9e	0.101220354
251	0x3c3e414e	0.01161225
252	0xba9bdae9	-0.0011890802
253	0x3e33c6ad	0.17556258
254	0x3d97a95d	0.0740535
255	0x3e9132a5	0.2835895

time_weights2 f4 [288, 8]
0	0xbd8091dc	-0.062778205
1	0x3d4e3aba	0.050348975
2	0x3d595ec5	0.053068895
3	0xbc64586a	-0.013937095
4	0xbde8df84	-0.11370757
5	0x3fb32301	1.3995057
6	0xbf5cc6f7	-0.86241096
7	0x3da2b8ed	0.07945428
8	0x401475bf	2.3196867
9	0x3c86623c	0.016404264
10	0x3bdc28f2	0.0067187482
11	0xbcf870a7	-0.030327154
12	0xbc90b100	-0.017662525
13	0x3ac97914	0.0015371167
14	0x3d1f1936	0.038842402
15	0xbd73348f	-0.059376296
16	0x3d4df026	0.05027785
17	0x3c03cba8	0.008044161
18	0x3c847169	0.01616736
19	0x3cc86fb4	0.024467327
20	0x3d48e0a3	0.049042355
21	0x3c90feeb	0.01769968
22	0xbd5dd402	-0.054157265
23	0xbf1ea0b3	-0.6196396
24	0x3e6c7301	0.23090746
25	0xbe92a4af	-0.2864127
26	0xbee780a3	-0.4521533
27	0xbe8d368a	-0.27580673
28	0xbeea2265	-0.45729366
29	0x3af5357a	0.0018707954
30	0x3f199b19	0.60002285
31	0x3fc70c05	1.5550543
32	0xbb5d67b7	-0.0033783743
33	0xbc0b3965	-0.008497571
34	0x390e4a12	0.00013569769
35	0xbcbaf412	-0.02282146
36	0x3d9328a9	0.0718549
37	0x3ed0e087	0.407963
38	0xbf9a6020	-1.2060585
39	0x3f339005	0.7014163
40	0xbe9176f8	-0.28411078
41	0xbbf17c80	-0.007369578
42	0xbd7c8977	-0.061654534
43	0xbd6b7d1d	-0.057492364
44	0xbd4bfac4	-0.049799696
45	0xbd45d333	-0.04829712
46	0x3d1206ba	0.035650946
47	0xbe0f9a13	-0.14023618
48	0x3ef57dbb	0.47947487
49	0xbdfc77b2	-0.123275176
50	0x3d1360bf	0.035980936
51	0xbd161c2d	-0.036647964
52	0xbe10e17e	-0.14148518
53	0xbed58c67	-0.4170868
54	0xbde39d70	-0.11114013
55	0xbed1ec0f	-0.4100041
56	0xbfd8f88e	-1.6950853
57	0x3fb7378c	1.4313827
58	0x3d16c91a	0.03681288
59	0x3e0e863b	0.13918392
60	0x3dd87ec1	0.105710514
61	0xbd31db7f	-0.04342222
62	0xbeea5e28	-0.4577496
63	0x3ecb7929	0.39740875
64	0x3c5baf5b	0.013408507
65	0x3b15c61e	0.0022853683
66	0x3c012754	0.007882912
67	0x3b8c3e50	0.004279889
68	0xbbb00206	-0.005371335
69	0xbcbca066	-0.023025703
70	0xb98256fa	-0.00024860335
71	0x3fc75aef	1.5574626
72	0xbe9422d5	-0.28932825
73	0xbd855504	-0.06510356
74	0xbe0fc9e0	-0.14041853
75	0xbe272425	-0.16322382
76	0x3d643972	0.055718847
77	0x3e228b2f	0.15873407
78	0xbe67dbbb	-0.22642414
79	0x3e0eca44	0.13944346
80	0xbcfd2ee1	-0.030906143
81	0x3c898152	0.016785298
82	0x3b97453a	0.0046164067
83	0xbcc45046	-0.023964059
84	0x3e0aa73f	0.13540362
85	0x3e9cb26e	0.3060488
86	0xbfc7ab4c	-1.5599151
87	0x3f9932d0	1.1968632
88	0x3ef0df97	0.47045586
89	0x3cac89ea	0.021061856
90	0x3df9ad98	0.121913135
91	0x3dae35ae	0.08506332
92	0x3db3ac8a	0.087731436
93	0x3dd0e83b	0.102005444
94	0xbd596dbf	-0.053083178
95	0x3ef49499	0.4776962
96	0xbcd2ab21	-0.025716366
97	0x3b8e4276	0.004341419
98	0xbb666c0c	-0.0035159616
99	0x39dd9c69	0.0004226894
100	0x3cdacf99	0.026710318
101	0x3e137259	0.14399089
102	0x3ec9457b	0.39310822
103	0x3fb175f4	1.3864121
104	0x3c415937	0.011801056
105	0x3d6fa103	0.058503162
106	0x3e04669c	0.12929767
107	0x3e0e6f47	0.13909636
108	0x3ef5935c	0.4796399
109	0x3eaad0ef	0.3336253
110	0x3eb85464	0.36001885
111	0xbf3b68df	-0.73206896
112	0xbf58473b	-0.8448369
113	0x3eae642a	0.34060794
114	0x3d9efd03	0.07763102
115	0x3e2642d0	0.16236424
116	0x3e009c68	0.12559664
117	0x3caee530	0.02134952
118	0x3d124fc0	0.035720587
119	0x3df5b753	0.11997857
120	0x3eb7cc5c	0.358981
121	0xbb06f270	-0.0020591281
122	0x3d7d4e94	0.061842516
123	0x3db60cdd	0.08889172
124	0x3c8fdf20	0.017562449
125	0xbcc706b5	-0.02429519
126	0xbda18524	-0.07886723
127	0x3e9beace	0.3045258
128	0x3b5654d5	0.0032704372
129	0x3b92372e	0.0044621443
130	0xbcb62c29	-0.022237854
131	0xbb8b568e	-0.0042522615
132	0x3d167bf1	0.036739293
133	0x3e38a34e	0.18031046
134	0x3ea2e95a	0.31818658
135	0x3fec833a	1.8477547
136	0xbd08e2ab	-0.033419292
137	0xbb59bed9	-0.0033225326
138	0xbc9229d3	-0.017842209
139	0x3c17657e	0.009240506
140	0x3d9d4566	0.07679252
141	0x3e5a2941	0.213048
142	0x3ec8216c	0.39088
143	0x3f3116d7	0.69175476
144	0xbf604403	-0.8760378
145	0xbd9f55ca	-0.07780035
146	0xbc5c751f	-0.013455658
147	0x3ca47375	0.020074585
148	0x3d666658	0.056249946
149	0x3d6f285e	0.058388107
150	0x3c0d60b2	0.008629011
151	0x3ba8a66f	0.0051467936
152	0x3fb3e619	1.4054595
153	0x3f00a8b6	0.5025743
154	0x3d4438c0	0.047905684
155	0xbbc5bfa2	-0.0060348073
156	0xbcac56f1	-0.02103755
157	0xbc65be02	-0.014022352
158	0xb9b98aa3	-0.00035389242
159	0xbc32f56b	-0.01092277
160	0x3dcb4324	0.099249154
161	0x3d8e6dfa	0.0695457
162	0xbe8a43d0	-0.27004862
163	0xbef9bcc0	-0.48776817
164	0xbf351fe7	-0.70751804
165	0xbf7479fd	-0.9549864
166	0xbf61a17f	-0.8813705
167	0xbf379381	-0.7170945
168	0x3b4317f2	0.0029768911
169	0xbb87323b	-0.004125861
170	0x3b3d6fd3	0.0028905764
171	0x3a05e4d7	0.0005107647
172	0xbb1f8274	-0.002433923
173	0x3c53b930	0.01292257
174	0x3d0eb37d	0.034839142
175	0xc03b5d58	-2.9275723
176	0x3d08f8aa	0.03344027
177	0xbbb68b55	-0.005570809
178	0xbdf9d02b	-0.12197908
179	0xbe50d022	-0.20391896
180	0xbee81529	-0.45328644
181	0xbe858728	-0.2607968
182	0xbed5184a	-0.41620094
183	0x3f7b6fc6	0.9821743
184	0x3ece264a	0.40263587
185	0xbcd9a4f8	-0.026567921
186	0xbcab7dd0	-0.020934016
187	0x3c6140de	0.013748376
188	0x3c667601	0.01406622
189	0xbc244cbf	-0.010028063
190	0xbc73c9fa	-0.014879698
191	0x3f92560e	1.1432512
192	0x3f54ceeb	0.8312823
193	0xbf8d104d	-1.10206
194	0x3dd9bad3	0.10631337
195	0x3e1dc35d	0.15406556
196	0xbcc9e535	-0.024645427
197	0xbd84167e	-0.064496025
198	0x3d9c8e7a	0.07644363
199	0xbcf69608	-0.030100837
200	0xbf5a261b	-0.85214394
201	0xbe1d151c	-0.15340084
202	0xbe3f4aa9	-0.18680824
203	0xbe3d5361	-0.18488838
204	0xbc444328	-0.011978902
205	0xbd9cb2dc	-0.07651302
206	0xbcbd4259	-0.023102926
207	0xbb033200	-0.0020018816
208	0xbe99ba9b	-0.3002518
209	0xbe78bbb9	-0.2429036
210	0xbe9ef479	-0.31045893
211	0xbf11bec0	-0.56931686
212	0xbeba68b2	-0.36408
213	0x3d753f05	0.059874553
214	0xbe2d29e5	-0.16910513
215	0x3f296834	0.66174626
216	0xbcdc9711	-0.026927503
217	0x3d19b04a	0.037521638
218	0xbdd165d1	-0.10224498
219	0x3e2285d3	0.15871362
220	0x3f057868	0.5213685
221	0x3f3ac4fc	0.72956824
222	0xbfbc3980	-1.4705048
223	0x3f4f65f1	0.81014925
224	0xbf2497a9	-0.64293915
225	0xbf21d3fa	-0.63214076
226	0x3d9c4ffc	0.07632443
227	0x3e3d586f	0.18490766
228	0x3f073af5	0.52824336
229	0x3e7b8c57	0.24565254
230	0xbd4d3256	-0.050096832
231	0xbe6ff1f4	-0.23432142
232	0x3ee8e6de	0.45488638
233	0x3af15464	0.0018411991
234	0x3b1cc800	0.002392292
235	0xbc9af2c9	-0.018914597
236	0x3c289ea9	0.010291734
237	0x3cc6ece2	0.024282876
238	0x3e1e7c69	0.15477146
239	0x3f8b32aa	1.0874836
240	0xbf4f5612	-0.8099071
241	0x3e116497	0.14198528
242	0x3e3b9cb5	0.18321498
243	0x3ec490c1	0.38391688
244	0x3f0cf660	0.5506344
245	0x3eb52973	0.35383186
246	0x3ea25e31	0.31712487
247	0xbf213cad	-0.6298321
248	0x3d051315	0.0324889
249	0xbc04e1e8	-0.008110501
250	0x3cb65036	0.022255044
251	0x3d1c45d1	0.03815252
252	0x3d34ef60	0.0441736
253	0xbe0f4cbe	-0.13994119
254	0xbdf6c129	-0.12048561
255	0xbfa73ff1	-1.3066388

bias3 f4 [288]
0	0x3c89f314	0.016839541
1	0x3f55d874	0.83533406
2	0x3c59edb7	0.013301305
3	0xbf426743	-0.75938815
4	0xbaf158de	-0.0018413325
5	0x3f2aba86	0.6669086
6	0x3dbda1e6	0.09259395
7	0x3e9aae1d	0.30210963
8	0x3f4135ac	0.7547252
9	0x3dcf77e2	0.10130288
10	0x3a3154e5	0.00067646644
11	0x3df8844b	0.12134608
12	0x3edb5137	0.428354
13	0x3ed7ab1b	0.4212273
14	0x3d1d8461	0.038456324
15	0xbe316dd7	-0.17327057
16	0x3f2c0f81	0.6721116
17	0x3d5d815a	0.054078437
18	0xbc846c21	-0.016164841
19	0x3f058476	0.52155244
20	0x3e9398ad	0.2882742
21	0x3f56a6aa	0.8384806
22	0x3e6e3422	0.23262075
23	0x3ec1a5ac	0.3782171
24	0x3ca573f5	0.020196894
25	0x3e90cf4e	0.2828316
26	0x3d195d11	0.03744227
27	0x3de26a00	0.11055374
28	0xbe5660fc	-0.20935434
29	0xbbae225b	-0.005314154
30	0x3f1970d7	0.59937805
31	0x3f29c4e1	0.6631604
32	0x3e03bd1f	0.12865113
33	0x3c0d47f6	0.008623114
34	0x3e77da72	0.24204424
35	0x3dbb5442	0.0914693
36	0x3d1dc3b9	0.038516734
37	0xb936c1d9	-0.00017429086
38	0x3efb1a16	0.4904334
39	0x3db035a6	0.086039826
40	0x3f3f0579	0.74617726
41	0x3f30713e	0.68922794
42	0x3ee3a14e	0.44459003
43	0x3d96de51	0.07366622
44	0x3e5cadcc	0.21550673
45	0x3caefca9	0.021360712
46	0x3ebcc7d2	0.368712
47	0xbffec7e9	-1.9904758
48	0x3d936b7d	0.07198236
49	0x3ed5bfc2	0.41747862
50	0x3e5a1a74	0.21299154
51	0x3b92e0c5	0.004482361
52	0x3be227a3	0.0069016977
53	0x3e1b859b	0.15187685
54	0x3c06246b	0.008187394
55	0x3c12c4de	0.00895807
56	0x3c075f8e	0.008262528
57	0x3ddec45a	0.10877295
58	0x3e14b0c5	0.14520557
59	0x3e2ce00b	0.1688234
60	0x3ee05ebb	0.43822274
61	0x3e71ea34	0.23624498
62	0x3e537802	0.20651248
63	0x3df2c357	0.11853664
64	0x3c974647	0.018466128
65	0xba57518a	-0.00082137494
66	0x3d5360d0	0.051606
67	0x3f4443ad	0.76665765
68	0x3c4ea0d0	0.012611583
69	0x3c209b3c	0.009802636
70	0x3f2a07c7	0.6641812
71	0x3c0855ad	0.008321208
72	0xbf1c7eb3	-0.6113083
73	0xbd0feda2	-0.035138734
74	0x3ed69623	0.4191142
75	0x3d292b90	0.04130131
76	0x3ec8b68a	0.39201766
77	0xbd391625	-0.045187134
78	0x3e542d31	0.20720364
79	0x3dbba07b	0.091614686
80	0x3f15a7f9	0.5845943
81	0x3d93238a	0.07184513
82	0x3e496ab3	0.19669609
83	0x3e3a77d9	0.18209781
84	0x3d62d5f8	0.055379838
85	0x3d79f681	0.0610261
86	0x3c9b62fd	0.0189681
87	0xbb3a5d0b	-0.0028436806
88	0x3d84d448	0.06485802
89	0x3df8c93f	0.1214776
90	0x3dedeb20	0.11617112
91	0x3d391673	0.045187425
92	0x3ca5a029	0.020217972
93	0x3bdb65e7	0.0066954973
94	0xbdc1f8ea	-0.09471305
95	0xbb3bd8c8	-0.0028663147
96	0xbcae384a	-0.021267075
97	0xbe1d37b0	-0.15353274
98	0x3e89abc3	0.26888856
99	0x3f142cf6	0.57881105
100	0x3f7f329c	0.996866
101	0x3d2eb528	0.042653233
102	0x3e312977	0.17300974
103	0x3e43e363	0.1912971
104	0x3bb2ee43	0.005460532
105	0x3eabbc59	0.33542135
106	0x3efaf9d1	0.4901872
107	0x3e6b6891	0.22989108
108	0xbd9bea96	-0.07613103
109	0x3eb2442c	0.34817636
110	0x3f225c32	0.6342193
111	0x3ee08c8d	0.43857232
112	0x3f2cd079	0.67505604
113	0xbd7c1d70	-0.06155151
114	0x3ece0107	0.4023516
115	0x3d829b98	0.063773334
116	0x3e7c294a	0.24625126
117	0x3dbe3867	0.09288102
118	0x3efc316f	0.49256465
119	0x3f4ff8c2	0.8123895
120	0x3ceb12bc	0.028695457
121	0xbc3e67cb	-0.011621426
122	0x3f361a6f	0.71134084
123	0x3e01696c	0.12637872
124	0x3c84ecfa	0.01622628
125	0xbd66fc9f	-0.056393262
126	0xc03efdbb	-2.9842365
127	0x3f587885	0.845589
128	0x3f7d1ace	0.98869026
129	0xbb74fc67	-0.0037381889
130	0x3eb221b5	0.3479134
131	0xbe1189d5	-0.14212735
132	0x3e176d99	0.14787902
133	0xbf94a44f	-1.1612643
134	0x3cec1bcf	0.028821854
135	0x3cfeab04	0.031087406
136	0x3f288026	0.6582054
137	0x3dbb5bf0	0.09148395
138	0x3c750248	0.014954157
139	0x3ee49cc7	0.44650862
140	0xbc3376cd	-0.010953617
141	0xbb57fec4	-0.0032958249
142	0x3f26102c	0.64868426
143	0x3b2ca716	0.0026344708
144	0x3d9e2c4a	0.07723291
145	0x3c59b633	0.013288069
146	0x3e7cc90f	0.24686073
147	0x3ba3b7e3	0.0049962862
148	0x3edca9ed	0.43098393
149	0x3c8cc801	0.017185213
150	0x3db960a0	0.09051633
151	0x3cd99091	0.026558192
152	0x3f0ebeea	0.5576006
153	0x3ed67f4e	0.41894
154	0xb9ce6a49	-0.0003937057
155	0x3dbf7ae8	0.093496144
156	0x3c7b3394	0.015332121
157	0x3ec781ca	0.3896621
158	0x3bcbc8c5	0.006219002
159	0x3f124151	0.57130915
160	0x3e7251a2	0.23663953
161	0x3f599549	0.84993416
162	0x3d30917f	0.043107506
163	0xbc9c63ff	-0.01909065
164	0xbfdac604	-1.709168
165	0x3eb3a24b	0.35084757
166	0x3c114d61	0.008868546
167	0xbfac11ca	-1.3442929
168	0xbe39e792	-0.18154743
169	0xbee94b6b	-0.45565352
170	0x3d8a9e33	0.06768455
171	0xbe024627	-0.12722073
172	0x3e9c305c	0.30505645
173	0x3d0bfc55	0.03417619
174	0x3f29cac5	0.66325027
175	0x3ec8ad1d	0.39194575
176	0xbba0060e	-0.0048835343
177	0x3e956010	0.29174852
178	0x3db4e51b	0.08832761
179	0x3fa6cb59	1.3030807
180	0x3f3a5ec7	0.7280087
181	0xbc9b0342	-0.018922452
182	0xbb60c72f	-0.003429841
183	0x3e3f1e01	0.1866379
184	0x3f2b4d77	0.66915077
185	0x3e93745d	0.28799716
186	0xbf887f96	-1.0663936
187	0xbd38866d	-0.045050073
188	0xbcd8a2ed	-0.026444877
189	0x3f3f3648	0.746922
190	0xbe4d7f5b	-0.20068114
191	0x3c137de2	0.009002181
192	0x3d883f2c	0.06652674
193	0xbb8f8f5d	-0.004381104
194	0x3d281a0c	0.041040465
195	0x3e5a2e8d	0.2130682
196	0x3e9260f9	0.2858961
197	0x3e861aac	0.26192224
198	0xbe3364e2	-0.17518952
199	0x3f39e220	0.72610664
200	0xbb12f156	-0.002242168
201	0x3cc7af81	0.024375679
202	0x3e1cead5	0.15323956
203	0x3c68c683	0.014207485
204	0x3f832611	1.0245992
205	0x3ca3b101	0.019981863
206	0xbd277e1f	-0.040891763
207	0x3c6493e6	0.013951277
208	0x3ecfff66	0.4062454
209	0x3a1cb659	0.00059780997
210	0x3d659db9	0.05605862
211	0x3f3b5695	0.7317899
212	0x3eb5e14d	0.35523453
213	0x3f5cd26c	0.8625858
214	0x394f0e51	0.00019746392
215	0x3f2c7f46	0.67381704
216	0x3bf5c916	0.007500778
217	0x3f176894	0.5914395
218	0xbc93ac1c	-0.018026404
219	0x3f570e2f	0.8400602
220	0xbb0928e4	-0.0020928914
221	0x3e7fea5c	0.24991745
222	0x3d418ca0	0.04725325
223	0x3aec27ab	0.0018017193
224	0xbcea69bd	-0.028614873
225	0x3db6b2c1	0.08920813
226	0xbb110114	-0.0022125887
227	0xbdb39e82	-0.08770467
228	0xbbe7dd91	-0.0070759733
229	0x3f0cc546	0.54988515
230	0xb9d3d05f	-0.00040400305
231	0x3e14d578	0.14534557
232	0x3c32376d	0.010877472
233	0x3d56f5c9	0.052480493
234	0x3f52c37c	0.82329535
235	0xba65acdb	-0.0008761414
236	0x3e935a33	0.28779754
237	0x3e7cbe00	0.24681854
238	0x3f251761	0.644888
239	0xbd6b1ee7	-0.057402518
240	0x3f073375	0.5281289
241	0x3e3b86b0	0.18313098
242	0x3b997bd0	0.004683949
243	0x3ed0a273	0.4074894
244	0xbc24fa46	-0.010069435
245	0x3f544618	0.82919455
246	0x3ec12cac	0.37729394
247	0x3ef3362c	0.47502267
248	0x3dd63713	0.10459723
249	0x3e8372dd	0.2567357
250	0xbca697a4	-0.02033598
251	0xbe36e9a1	-0.1786256
252	0x3f221ebf	0.63328165
253	0x3e1fd62e	0.15609047
254	0x3e4c6d40	0.1996355
255	0x3e220a5d	0.15824266

weights6 f4 [64, 288]
0	0xbd8c12d8	-0.06839532
1	0x3dfb567f	0.12272357
2	0x3ee8e455	0.45486704
3	0xbe7068ca	-0.23477474
4	0x3d244d5d	0.040112842
5	0x3cc69fdb	0.024246147
6	0x3b34c482	0.0027582948
7	0xbb7b50b1	-0.0038347656
8	0xbe3af0bf	-0.182559
9	0x3e5a25b3	0.21303444
10	0x3d194950	0.037423432
11	0xbe890cbc	-0.26767528
12	0x3d361baa	0.044459976
13	0xbea5ff67	-0.3242142
14	0x3e345c0c	0.17613238
15	0xbede0075	-0.43359724
16	0x3e13f181	0.14447595
17	0xbd4c3d7c	-0.049863324
18	0xbe644c17	-0.22294651
19	0x3da36f8d	0.07980261
20	0x3cf0cd9c	0.029394917
21	0xbea22fc2	-0.3167706
22	0x3f08dde8	0.534636
23	0x3eb843d9	0.35989264
24	0x3e31293a	0.17300883
25	0xbd577930	-0.052605808
26	0x3e640d38	0.22270668
27	0x3d8beb09	0.06831939
28	0xbd884a99	-0.066548534
29	0x3ef89fee	0.48559517
30	0x3e9e85e2	0.3096152
31	0x3e8a5974	0.27021372
32	0x3cc80247	0.024415148
33	0x3da95ebc	0.08270022
34	0x3e263c3a	0.16233912
35	0x3ecddc0c	0.40206945
36	0x3eebdfe2	0.46069247
37	0xbe0273f6	-0.12739548
38	0x3ec2c329	0.3803952
39	0x3bd8eae1	0.0066197966
40	0x3e0439b8	0.12912643
41	0x3f0bf22a	0.5466639
42	0xbe5fc4fc	-0.21852487
43	0x3ebd1797	0.3693206
44	0x3e1821f4	0.14856702
45	0x3e869105	0.26282516
46	0xbe7fbd9b	-0.24974672
47	0xbd8f29c3	-0.06990387
48	0x3d3d5b35	0.04622956
49	0xbe426896	-0.18985209
50	0x3d093f1e	0.03350746
51	0xbd956acb	-0.0729576
52	0xbebb470a	-0.36577636
53	0x3c2d01a5	0.010559474
54	0xbc2d1996	-0.010565182
55	0x3e85d8b6	0.261419
56	0xbd3bc641	-0.045843367
57	0xbe5b7132	-0.214299
58	0xbe9a342d	-0.30117932
59	0xbec17530	-0.3778472
60	0x3e93ac64	0.2884246
61	0xbeec6a23	-0.46174726
62	0xbea016e7	-0.31267473
63	0xbe5caa2c	-0.2154929
64	0xbcd62c54	-0.026144184
65	0x3dd5bb41	0.104361065
66	0x3e04dc76	0.12974724
67	0x3e7b1dca	0.24523082
68	0x3eab353b	0.3343905
69	0x3d9dac60	0.076988935
70	0xbd90099f	-0.07033085
71	0xbd24a479	-0.040195916
72	0x3d19c236	0.03753873
73	0xbeda2e2f	-0.4261336
74	0x3eb1f692	0.3475843
75	0xbe8aecf3	-0.27133903
76	0x3eb48ec4	0.35265172
77	0xbe095421	-0.13410999
78	0x3e5e7b15	0.2172664
79	0x3ef06194	0.46949446
80	0x3e2f2af0	0.17106223
81	0x3bfc19a8	0.007693488
82	0x3e2763f4	0.16346723
83	0xbdda9a81	-0.106740005
84	0xbe698029	-0.22802795
85	0x3e529ffd	0.20568843
86	0x3f36c0a2	0.71387684
87	0x3e7b4837	0.24539267
88	0x3f00149e	0.5003146
89	0xbd1f69c0	-0.03891921
90	0xbde6cd12	-0.11269583
91	0xbe1fbb7b	-0.15598862
92	0xbde97741	-0.11399699
93	0x39948472	0.0002832744
94	0x3e07ae74	0.13250142
95	0xbd9da9f4	-0.076984316
96	0x3dc4e418	0.09613818
97	0x3e20f7b7	0.15719496
98	0x3ea0626a	0.31325084
99	0xbca0b1c1	-0.01961601
100	0xbe2d2596	-0.16908869
101	0xbdb96dcd	-0.09054146
102	0xbe494591	-0.19655444
103	0x3e98a122	0.29810435
104	0xbde7b461	-0.113137014
105	0x3d58409b	0.052795988
106	0x3e1842a1	0.14869167
107	0xbe0f913a	-0.14020243
108	0xbcc6d713	-0.024272477
109	0xbcaf24a4	-0.021379776
110	0x3ccd546f	0.025064675
111	0xbcd54e02	-0.026038174
112	0x39c4b270	0.0003751698
113	0xbe9f0023	-0.31054792
114	0x3eaf7272	0.34267002
115	0x3d9995c2	0.07499267
116	0x3e1d84d0	0.15382695
117	0x3e1c3bec	0.15257233
118	0x3f4c5d25	0.7982963
119	0x3e96cc20	0.2945261
120	0xbca8dbb9	-0.020612584
121	0x3e3ab4bb	0.18233006
122	0x3e80b20a	0.25135833
123	0xbcbf7278	-0.023370013
124	0xbd6edc5d	-0.058315624
125	0x3e43dfa1	0.19128276
126	0x3d4da8ac	0.050209686
127	0x3dd47052	0.10372986
128	0x3e1ac925	0.15115793
129	0x3e86128b	0.26186022
130	0xbd8f950b	-0.070108496
131	0x3ed3e0d9	0.41382483
132	0xbe3bee88	-0.18352711
133	0x3ddb4ef6	0.1070842
134	0xbd9c0f37	-0.076200895
135	0xbdb5c18c	-0.08874807
136	0xbe1cca14	-0.15311462
137	0xbb081619	-0.0020765124
138	0x3dc7cf30	0.09756315
139	0x3ee1cac6	0.44100016
140	0x3e10e23b	0.141488
141	0xbdab21d7	-0.08356064
142	0x3e2cb413	0.16865568
143	0x3e8d0da9	0.27549484
144	0xbd74bc73	-0.05975003
145	0x3e513dcf	0.20433734
146	0x3eab57ba	0.33465368
147	0x3e6906cc	0.22756499
148	0xbe538494	-0.20656043
149	0x3e0e6af9	0.13907994
150	0x3d3dfe99	0.04638538
151	0xbc3e640e	-0.011620535
152	0x3d89255d	0.066965796
153	0xbe7015d2	-0.23445824
154	0x3b60e2af	0.0034314801
155	0xbdaa47a4	-0.083144456
156	0xbdbdec1b	-0.09273549
157	0xbefe15a2	-0.4962588
158	0xbd3a1fce	-0.045440488
159	0x3f40616a	0.7514864
160	0x3cb55dff	0.022139547
161	0xbea11c71	-0.31467012
162	0x3c0db09f	0.008648067
163	0xbe185dc9	-0.14879526
164	0xbb76be29	-0.0037649965
165	0x3f0ca72c	0.54942584
166	0x3ecad7d8	0.396178
167	0xbef30220	-0.4746256
168	0xbdc39708	-0.09550291
169	0xbd940192	-0.07226862
170	0x3da1315c	0.07870743
171	0x3e854bfb	0.2603453
172	0xbe8db6a5	-0.2767841
173	0xbddb0cbd	-0.10695789
174	0xbe31ead1	-0.17374732
175	0x3dabf3af	0.08396088
176	0x3d5f81ec	0.054567263
177	0xbd2aa875	-0.04166456
178	0xbe7517aa	-0.23934808
179	0xbd8b3ab4	-0.06798306
180	0x3e9cf700	0.30657196
181	0x3e798b35	0.2436951
182	0xbed4df97	-0.41576836
183	0xbe75cae0	-0.24003172
184	0xbde22b8e	-0.11043464
185	0x3cabe6cd	0.020984078
186	0x3e68231f	0.22669648
187	0x3eb06bec	0.34457338
188	0x3da2f255	0.079563774
189	0xbcc658f4	-0.024212338
190	0x3ddcf63a	0.107891515
191	0x3d1811a2	0.03712619
192	0xbe453891	-0.1925986
193	0xbe25dca4	-0.16197449
194	0x3dc4811d	0.09594939
195	0x3d93c45e	0.072151884
196	0x3df80683	0.12110617
197	0xbec5d694	-0.38640273
198	0xbeb688e7	-0.35651323
199	0xbe8533a2	-0.26015955
200	0xbdb4018e	-0.08789359
201	0x3e2d1a16	0.16904482
202	0xbec13a20	-0.37739658
203	0xbe3ead11	-0.18620707
204	0xbeae320b	-0.34022555
205	0x3e6f846a	0.23390356
206	0xbc86578b	-0.016399166
207	0xbd5e4bfe	-0.05427169
208	0x3e09fc2d	0.13475104
209	0xbe83a710	-0.25713396
210	0x3e0eb969	0.13937916
211	0xbd23bee0	-0.039976954
212	0x3dc5a481	0.09650517
213	0xbeabecc5	-0.33579078
214	0x3f064fd9	0.5246559
215	0xbba5c8ec	-0.005059352
216	0x3e08d6d2	0.13363197
217	0x3ea0e294	0.31422865
218	0x3d16f133	0.03685112
219	0x3eaf5ede	0.34252065
220	0x3e809ed6	0.25121182
221	0x3de63573	0.112406634
222	0x3ed3fed1	0.41405347
223	0x3e8cddb9	0.2751291
224	0xbe9e4718	-0.30913615
225	0xbeb19008	-0.346802
226	0x3eaea8ee	0.34113258
227	0xbe1c2e6b	-0.15252082
228	0xbea5e9a4	-0.32404816
229	0x3e0430aa	0.12909189
230	0xbe2e32c9	-0.1701156
231	0x3daa4b9d	0.08315203
232	0x3e34c469	0.1765305
233	0x3e410c4a	0.18852344
234	0x3e4d0efc	0.20025247
235	0x3ef6dc7e	0.48215097
236	0xbe3d50e0	-0.18487883
237	0x3e14f897	0.14547954
238	0xbe2d0e17	-0.16899906
239	0xbe90324e	-0.2816338
240	0x3ea322e7	0.31862566
241	0xbdad8622	-0.084728494
242	0xbe2ebad3	-0.17063455
243	0x3c5c9532	0.013463305
244	0x3d80e0b7	0.06292861
245	0xbe7909c1	-0.24320127
246	0x3cedcf24	0.029029436
247	0x3dd7fd20	0.10546327
248	0xbbcf0d88	-0.0063187517
249	0x3e667175	0.22504218
250	0x3d33a48b	0.043858092
251	0x3c849f29	0.016189175
252	0xbe0c4b07	-0.13700496
253	0xbe95f129	-0.29285553
254	0xbebf54bf	-0.37369344
255	0x3dae813c	0.08520743

bias7 f4 [64]
0	0xbf79836a	-0.97466147
1	0x3ea77e31	0.32713464
2	0x3d504ecb	0.050856393
3	0xbe82d563	-0.25553426
4	0xbdea168e	-0.11430083
5	0xbf38ac64	-0.7213805
6	0xbec32766	-0.38115996
7	0xbf4a4118	-0.79005575
8	0xbea5e10d	-0.32398263
9	0x3efc8135	0.49317327
10	0xbf1ff0b5	-0.62476665
11	0x3eeb866f	0.46001002
12	0xbe6afb05	-0.22947319
13	0xbe864ad0	-0.26228952
14	0xbeaff9fd	-0.34370413
15	0xbcd33437	-0.025781734
16	0x3e38ed93	0.18059377
17	0xbd07ea5e	-0.033182494
18	0xbee2a1d7	-0.442641
19	0x3edd1df1	0.43186906
20	0xbec06b77	-0.3758199
21	0xbe26695b	-0.16251127
22	0xbf558622	-0.83407795
23	0xbec8128f	-0.3907666
24	0x3ed05ffa	0.40698224
25	0xbf760a6b	-0.96109647
26	0xbfa1866d	-1.2619148
27	0xbf0acb47	-0.54216427
28	0xbf08fae8	-0.5350785
29	0xbe4ae53e	-0.19814011
30	0xbf2673a5	-0.6502021
31	0xbe089d9e	-0.13341376
32	0xbfa4340d	-1.2828385
33	0xbf928782	-1.1447604
34	0xbe88f497	-0.26749107
35	0x3f527cef	0.82221884
36	0xbeb95321	-0.36196235
37	0x3e2a3691	0.16622378
38	0xbe460fb4	-0.19341928
39	0x3d164f5a	0.03669677
40	0xbf44ff74	-0.7695229
41	0xbfe1c1e8	-1.76373
42	0x3f90e89b	1.1320986
43	0x3f001506	0.5003208
44	0xbe9a127d	-0.3009223
45	0xbf11bb09	-0.5692602
46	0xbf7f2b3a	-0.99675333
47	0xbe3ce341	-0.18446065
48	0x3f142310	0.57866
49	0xbe81134a	-0.2521003
50	0xbea4020e	-0.32032818
51	0xbf155957	-0.58339447
52	0x3e906d3e	0.28208345
53	0x3b8710fc	0.0041218977
54	0x3dafdeec	0.08587441
55	0x3e5b5199	0.21417846
56	0xbf261122	-0.6486989
57	0x3ef15af5	0.47139707
58	0xbef420aa	-0.4768117
59	0x3f062b54	0.52409863
60	0x3f834fec	1.0258765
61	0xbf58e58d	-0.84725267
62	0xbf4d7639	-0.8025852
63	0xbe9d6b5c	-0.3074597

feature_weights9 f4 [288, 64]
0	0x3d9f5a22	0.07780863
1	0xbe6be279	-0.23035611
2	0x3c9274fa	0.017878044
3	0xbdf6a1a8	-0.12042552
4	0x3e898d72	0.26865727
5	0xbde9fd01	-0.1142521
6	0xbcf55d46	-0.029951703
7	0xbd20a082	-0.039215572
8	0x3e451922	0.19247869
9	0x3e5a6506	0.213276
10	0x3dd9afdb	0.10629245
11	0x3e1916ef	0.14950155
12	0x3e260625	0.16213281
13	0xbdb4ea68	-0.08833772
14	0x3d1d2b2d	0.038371254
15	0xbc629c51	-0.013831214
16	0xbe4c1bb7	-0.19932447
17	0x3d984846	0.0743566
18	0xbd698b76	-0.057017766
19	0x3e338fa0	0.17535257
20	0x3dd1ee00	0.10250473
21	0x3e86b4e7	0.26309893
22	0x3e9f1649	0.3107169
23	0xbcd5070b	-0.026004335
24	0x3e3c91b6	0.1841496
25	0x3d0ce11b	0.034394365
26	0x3e9048bb	0.2818049
27	0xbd0a9b2b	-0.033839386
28	0x3e080277	0.1328219
29	0x3e2485d9	0.16066684
30	0x3e3ee348	0.18641388
31	0x3dd7f031	0.1054386
32	0xbda689a9	-0.08131725
33	0xbc417908	-0.011808641
34	0x3dee94c6	0.1164947
35	0x3dadab89	0.08479983
36	0x3cd4a4b6	0.025957447
37	0x3d785af7	0.060633626
38	0xbebfc6bd	-0.37456313
39	0x3da0acd1	0.07845462
40	0x3d169703	0.03676511
41	0x3dd5d065	0.10440139
42	0xbdaa1367	-0.08304482
43	0xbd7dab98	-0.061931223
44	0x3df5f095	0.12008778
45	0xbd8710df	-0.06595015
46	0x3e63353c	0.22188276
47	0xbe8b569e	-0.2721452
48	0xbc87c83d	-0.016574973
49	0x3d9448f7	0.072404794
50	0xbcaf8d08	-0.021429554
51	0x3e175823	0.14779715
52	0x3ec710a4	0.38879883
53	0xbe802a2e	-0.2503218
54	0xbd9a30e8	-0.075288594
55	0x3c84b312	0.016198669
56	0x3e574a95	0.21024545
57	0xbe29c39e	-0.16578528
58	0xbdcd7e11	-0.10033811
59	0xbce43112	-0.02785543
60	0x3cba5489	0.022745388
61	0xbd2ec678	-0.042669743
62	0x3b09164e	0.0020917836
63	0x3d52402c	0.05133073
64	0x3dcc7a7a	0.09984298
65	0xbe7c630f	-0.24647163
66	0xbd230c8f	-0.0398069
67	0xbe4c6852	-0.1996167
68	0x3e29633c	0.16541761
69	0xbe82387d	-0.25433722
70	0xbd6d5ccf	-0.057949837
71	0xbe61728e	-0.22016355
72	0xbe204f35	-0.15655215
73	0x3c2b893d	0.010469732
74	0x3d9ddfae	0.07708679
75	0x3e8a0670	0.26958036
76	0x3e45410f	0.19263099
77	0x3d959d65	0.07305411
78	0xbd5a4aa7	-0.05329385
79	0xbed12dab	-0.40855154
80	0xbea4f419	-0.32217482
81	0x3e8608d9	0.26178625
82	0xbe41ca7f	-0.18924902
83	0x3e6e3daf	0.23265718
84	0x3eca0ef2	0.39464527
85	0x3e955c73	0.29172096
86	0x3e7548b2	0.23953512
87	0x3e60eebd	0.21966071
88	0xbe2cc83e	-0.16873261
89	0xbe399da8	-0.18126547
90	0x3d22810c	0.03967385
91	0xbdb8439b	-0.0899727
92	0x3ca69252	0.020333443
93	0xbd4665d0	-0.04843694
94	0xbe2680da	-0.1626009
95	0xbd8888c3	-0.0666671
96	0xbe355fdb	-0.17712347
97	0x3d0fb82f	0.03508776
98	0xbdab2c88	-0.08358103
99	0x3e8081f3	0.25099143
100	0x3d6176a9	0.055044804
101	0x3e698d9d	0.22807927
102	0x3e79e70e	0.24404547
103	0xbe19e366	-0.15028152
104	0xbeafd07e	-0.34338754
105	0xbead1987	-0.33808538
106	0x3c74a792	0.01493253
107	0xbe4242e5	-0.1897083
108	0xbe49768a	-0.19674125
109	0x3c479c5d	0.012183276
110	0x3e29bab9	0.16575135
111	0x3e7d85d9	0.2475809
112	0x3e986b42	0.2976933
113	0x3e7b98a7	0.24569951
114	0x3e835d33	0.25657043
115	0x3e8012ec	0.25014436
116	0xbde69abe	-0.112599835
117	0x3e700de8	0.23442805
118	0x3dbc4457	0.09192722
119	0x3e53ebab	0.20695369
120	0xbe4a4200	-0.1975174
121	0x3de42bcf	0.11141168
122	0x3e0f725b	0.14008467
123	0xbe5de77b	-0.21670334
124	0x3eb2284b	0.34796366
125	0xbb5e6aeb	-0.003393824
126	0x3e4946eb	0.1965596
127	0xbe67a64d	-0.22622032
128	0x3ea7b3ad	0.3275427
129	0xbea69192	-0.32532936
130	0x3e3ea77b	0.18618576
131	0x3da05dd1	0.07830394
132	0xbe1d444d	-0.15358086
133	0x3ebdee2a	0.37095767
134	0x3e2eaafc	0.17057413
135	0x3e8b0542	0.2715245
136	0xbe50b987	-0.20383273
137	0x3e5b7bf4	0.21434003
138	0xbe5ca9f6	-0.2154921
139	0xbe0ec7fc	-0.13943475
140	0x3e32a76e	0.17446682
141	0x3e8f7659	0.2801998
142	0x3ecd2be9	0.40072563
143	0x3dd00df5	0.10158912
144	0x3c9d0604	0.019167908
145	0xbeb53b9d	-0.35397044
146	0xbe105a99	-0.1409706
147	0xbdc09627	-0.09403639
148	0x3eb1c0af	0.34717318
149	0xbde28e88	-0.11062342
150	0x3d823a76	0.06358807
151	0x3dd07368	0.10178262
152	0xbe800575	-0.25004163
153	0xbd828cd2	-0.063745156
154	0x3d370f53	0.04469235
155	0x3e9aa437	0.3020341
156	0xbdf7d7b7	-0.12101691
157	0x3e000961	0.12503578
158	0xbe47ea83	-0.19523053
159	0x3e5f6fdd	0.21820016
160	0x3edf817f	0.43653485
161	0xbea0e830	-0.31427145
162	0x3ceb736a	0.028741557
163	0x3dab64b2	0.083688155
164	0x3debb150	0.11508429
165	0xbcd04c2e	-0.02542695
166	0x3d9abf8b	0.07556065
167	0x3debe4db	0.1151826
168	0xbe8aac4b	-0.27084574
169	0x3e53e016	0.20690951
170	0xbe82639e	-0.25466627
171	0x3e46d3e1	0.19416763
172	0x3de0c8a8	0.10975772
173	0xbe96aa98	-0.29427028
174	0x3ece6dde	0.40318197
175	0xbd670ffe	-0.056411736
176	0xbeaeab74	-0.34115183
177	0x3e86c4d9	0.26322058
178	0xbe266165	-0.1624809
179	0xbe32bb48	-0.17454255
180	0xbef185be	-0.4717235
181	0xbe443c4e	-0.1916363
182	0xbe98788a	-0.29779464
183	0xbe9bd238	-0.30433822
184	0x3e1422c0	0.14466381
185	0xbdd4217a	-0.10357948
186	0xbd1679a3	-0.036737096
187	0x3e376573	0.17909794
188	0xbe25e4de	-0.16200587
189	0xbe033512	-0.12813213
190	0x3e290e04	0.16509253
191	0x3eb609b3	0.35554275
192	0x3d17a639	0.037023757
193	0x3e4700ba	0.19433871
194	0xbe0e5a68	-0.13901675
195	0x3e865d19	0.26242903
196	0xbdbdfb58	-0.09276456
197	0xbd7ae5d5	-0.06125434
198	0xbd54955b	-0.05190025
199	0xbd9214d3	-0.07132878
200	0x3ecb2a06	0.396805
201	0x3b41f45b	0.002959511
202	0x3e4c0462	0.19923547
203	0xbe6a2ea2	-0.22869352
204	0xbdd48729	-0.10377342
205	0xbd42015b	-0.047364574
206	0xbc54c6b9	-0.012986832
207	0xbd55bb89	-0.0521808
208	0x3d57fd6d	0.05273192
209	0xbea7baa3	-0.3275958
210	0x3e402673	0.18764667
211	0xbeac30fc	-0.33631122
212	0xbdf1d57a	-0.118082955
213	0x3ea62a12	0.32453972
214	0xbe55a365	-0.20863111
215	0xbeb01bb7	-0.34396145
216	0x3e79274c	0.24331397
217	0xbd286108	-0.04110816
218	0x3e9044e4	0.2817756
219	0xbe575dfe	-0.21031949
220	0xbe4a0160	-0.19727087
221	0x3a9d2063	0.0011987801
222	0xbe1c4685	-0.15261276
223	0xbcfae0af	-0.030624716
224	0x3c8060af	0.015671102
225	0xbe73aa06	-0.23795328
226	0x3d6e350e	0.058156066
227	0xbe6e6734	-0.23281556
228	0x3dd33418	0.103126705
229	0xbd7417d6	-0.059593044
230	0xbcf0827b	-0.029359093
231	0x3e812b5a	0.25228387
232	0xbcfaf705	-0.030635366
233	0x3e12bc76	0.14329705
234	0xbe44aca6	-0.19206485
235	0x3e5aeb0e	0.21378729
236	0x3dc218e3	0.09477403
237	0x3def6a68	0.11690217
238	0x3dc61c29	0.0967334
239	0x3e458d78	0.19292247
240	0xbe7c4406	-0.24635324
241	0xbe93f066	-0.28894347
242	0xbe0f0a20	-0.13968706
243	0xbdb39500	-0.08768654
244	0xbd3ce8cf	-0.04612046
245	0xbd3dab5f	-0.04630601
246	0x3e523da6	0.2053133
247	0xbec17074	-0.37781107
248	0xbd9c01d0	-0.07617533
249	0x3e744095	0.23852761
250	0xbd18b9da	-0.037286617
251	0x3d44d65a	0.048055984
252	0xbebb4a29	-0.36580017
253	0x3e476d37	0.19475256
254	0xbe838ac6	-0.25691813
255	0xbcfa4dbb	-0.030554643

time_weights10 f4 [288, 8]
0	0x3e850e2b	0.25987372
1	0x3e00d11e	0.12579772
2	0x3e231e2c	0.15929478
3	0x3dbcf056	0.09225528
4	0x3e0c09e0	0.13675642
5	0x3dd888fa	0.10573001
6	0xbd429f98	-0.04751548
7	0xbf5be162	-0.8589078
8	0x3f82e7f0	1.0227032
9	0x3dbe8046	0.0930181
10	0x3daf0d03	0.08547404
11	0x3d204852	0.03913147
12	0xbbf5ff46	-0.0075072376
13	0xbbc3d6d9	-0.0059765396
14	0x3b75ac47	0.0037486719
15	0xbb8c280a	-0.004277234
16	0xbe9568c8	-0.29181504
17	0xbdb9c0ba	-0.09069963
18	0xbda5c18c	-0.08093557
19	0xbda41b40	-0.0801301
20	0xbdc2c109	-0.09509475
21	0xbdaf02a5	-0.08545426
22	0xbdece1e1	-0.115665205
23	0xbecd406f	-0.4008822
24	0xbe0f7625	-0.14009912
25	0xbd6e4d9f	-0.058179494
26	0xbd423f18	-0.047423452
27	0xbd3d103e	-0.046158068
28	0xbd127d22	-0.035763867
29	0xbc55e31e	-0.013054637
30	0x3e572c59	0.21013011
31	0xbf746e6c	-0.9548099
32	0x3cc47b49	0.023984568
33	0x3ce0189c	0.027355485
34	0x3c121363	0.008915755
35	0xbb39fdb1	-0.0028379972
36	0xbd40a060	-0.047027946
37	0xbddc4c4a	-0.107567385
38	0xbd72b89e	-0.059258096
39	0x3f108d26	0.56465375
40	0x3f39771e	0.72447383
41	0xbd5fb15a	-0.054612495
42	0xbc91af8a	-0.017783899
43	0xbd3533d8	-0.044238895
44	0xbd078fd0	-0.033096135
45	0xbd003099	-0.031296346
46	0xbc8470ab	-0.016167006
47	0xbda54183	-0.08069136
48	0x3c0e01aa	0.008667389
49	0xbd0b60a2	-0.034027703
50	0x3c98b871	0.018642636
51	0x3d0823d2	0.033237286
52	0x3da62b02	0.08113672
53	0x3d8be1f8	0.068302095
54	0x3eb72860	0.3577299
55	0xbf59907d	-0.84986097
56	0xbae44207	-0.0017414697
57	0xbc891ed4	-0.016738333
58	0x3c61c29d	0.01377931
59	0xbc2174db	-0.009854521
60	0xbc9b8e0c	-0.018988632
61	0xbdb7fe9c	-0.0898411
62	0xbdf0aafb	-0.11751362
63	0xbf16c383	-0.5889208
64	0x3ceb12c6	0.028695475
65	0xbb8e4d23	-0.0043426915
66	0x3cd85474	0.026407458
67	0x3ddbb70e	0.10728274
68	0xbb5d8492	-0.0033800942
69	0xbee0999a	-0.4386719
70	0xbefdfa1c	-0.4960488
71	0x3f3c9d0d	0.7367714
72	0x3dc23d90	0.09484398
73	0x3ae2c4af	0.0017301048
74	0x3ca3c722	0.019992415
75	0x3d26384e	0.04058104
76	0x3cd58e74	0.026068904
77	0x3d1d57b9	0.038413737
78	0x3d831aab	0.06401571
79	0x3ed3f589	0.41398266
80	0xbecd616e	-0.40113395
81	0xbd2c453b	-0.04205821
82	0xbcec7a97	-0.02886705
83	0xbbf095d0	-0.007342078
84	0xbcb956c9	-0.02262439
85	0x3d20cc5c	0.039257392
86	0xbbb1221f	-0.005405679
87	0xbe8e2ba6	-0.27767676
88	0x3dc54d7d	0.0963392
89	0x3cd9ec21	0.026601853
90	0x3c953327	0.018212868
91	0x3d830e65	0.0639923
92	0x3dfa522f	0.122227065
93	0x3e002e1d	0.12517591
94	0x3e5512bb	0.20807926
95	0xbf605f48	-0.8764539
96	0xbd53028e	-0.05151611
97	0x3d014f2a	0.031569637
98	0x3bff3531	0.0077883233
99	0x3d0a50c8	0.033768445
100	0xbb0ca41b	-0.002146012
101	0xbe85c2c0	-0.26125145
102	0xbf826ef4	-1.019011
103	0x3f83bcb6	1.0291965
104	0xbe65e327	-0.22449933
105	0xbe89e484	-0.26932156
106	0xbc9a0708	-0.01880218
107	0x3daf3491	0.08554948
108	0x3e3c668a	0.1839849
109	0x3ecad488	0.39615273
110	0x3e979fea	0.29614192
111	0xbefadaa5	-0.48994938
112	0x3c848f12	0.016181502
113	0x3ce11200	0.027474403
114	0x3ccb0f77	0.024787648
115	0x3d7b5635	0.06136151
116	0x3d385f2b	0.045012634
117	0x3dda648c	0.10663709
118	0x3e7efd4f	0.24901317
119	0xbf467979	-0.775291
120	0xbf41534d	-0.7551773
121	0xbdfee87d	-0.12446687
122	0xbcde4f4b	-0.02713742
123	0x3c4fafc5	0.012676184
124	0x3d9264be	0.07148121
125	0x3c44de37	0.012015871
126	0x3d97b587	0.074076705
127	0xbcf404d1	-0.029787453
128	0x3e25086f	0.16116498
129	0xbd0f64c9	-0.035008226
130	0x3daf843d	0.08570144
131	0xbd554b31	-0.05207366
132	0xbd3a8af4	-0.045542672
133	0x3d0dc134	0.03460808
134	0xbc3ff0a7	-0.011715091
135	0x3f206cd6	0.6266607
136	0x3ed19664	0.4093505
137	0x3d9167f1	0.070999034
138	0x3deaeace	0.11470567
139	0x3c66d2cb	0.014088343
140	0x3d47488d	0.048653174
141	0xbd1dce1c	-0.03852664
142	0xbdae7a68	-0.08519441
143	0xbe58096c	-0.21097344
144	0xbe6c209d	-0.23059316
145	0xbd158b04	-0.03650953
146	0xbd65b48a	-0.05608038
147	0xbd8c2297	-0.06842535
148	0xbd7bfecc	-0.06152229
149	0xbd7eee17	-0.06223878
150	0xbdc991ae	-0.09842239
151	0xbeb9df76	-0.363033
152	0xbcef96f3	-0.029246783
153	0xbd9817f2	-0.07426442
154	0xbd466014	-0.04843147
155	0xbd019438	-0.031635493
156	0xbd75bdef	-0.059995588
157	0xbd3ec694	-0.046576098
158	0xba66adf9	-0.00087997277
159	0xbf1e9bdf	-0.6195659
160	0xbeb5cb92	-0.35506874
161	0x3bc2de13	0.0059468835
162	0xbd8dd579	-0.06925482
163	0x3bbe2951	0.005803265
164	0xbd45ffcd	-0.048339654
165	0xbc2e784a	-0.010648796
166	0x3bbca4ce	0.005756951
167	0xbe0e30b6	-0.13885769
168	0x3c89bbc1	0.01681316
169	0x3d12cc62	0.035839446
170	0x3caaa3fb	0.020830145
171	0x3d7ace4e	0.061231904
172	0x3d4c639e	0.04989969
173	0x3dda9737	0.10673373
174	0x3c844ad7	0.016148968
175	0x3f03af43	0.51439303
176	0x3bf6347b	0.0075135804
177	0xbd02b915	-0.03191479
178	0xbd1e55e7	-0.03865614
179	0xbd496484	-0.049168125
180	0xbd700b34	-0.058604434
181	0xbd09a685	-0.03360607
182	0xbd25ce88	-0.040480167
183	0xbf032180	-0.5122299
184	0xbe95d05d	-0.2926053
185	0xbda341ed	-0.07971559
186	0xbd6fca7a	-0.058542706
187	0xbd4ab1b8	-0.049485892
188	0xbd122b7d	-0.035686005
189	0xbcf2ea03	-0.029652601
190	0xbd6fffe0	-0.05859363
191	0xbe98c044	-0.29834187
192	0xbd8cf33a	-0.06882329
193	0xbb98119b	-0.0046407706
194	0x3d01c34c	0.03168039
195	0x3d37237c	0.044711575
196	0x3d515a06	0.051111244
197	0x3decde55	0.11565844
198	0x3e5122d3	0.2042344
199	0x3ec71d3b	0.3888949
200	0xbe3a6428	-0.18202269
201	0xbd2813d4	-0.041034535
202	0xbdb0b019	-0.08627338
203	0xbd5e057a	-0.05420444
204	0xbdb9ce97	-0.09072607
205	0xbe47b41d	-0.19502302
206	0xbea5bc8e	-0.32370418
207	0x3f9a323c	1.204658
208	0x3d8dc3a4	0.06922081
209	0xbb0ee851	-0.0021805952
210	0x3c45aa14	0.012064476
211	0xbd3ec4cb	-0.046574395
212	0x3b1b34ab	0.0023682516
213	0x3d8394ef	0.06424891
214	0x3ddb4ccc	0.10708007
215	0x3f16415c	0.5869348
216	0xbe8f1580	-0.2794609
217	0xbd4823da	-0.048862316
218	0xbd4cfcee	-0.0500459
219	0xbcea7606	-0.028620731
220	0xbd608ca5	-0.05482163
221	0xbd8dbfac	-0.06921324
222	0xbdac47a7	-0.08412104
223	0xbeaff912	-0.34369713
224	0xbe029f64	-0.12756115
225	0xbd9eeb41	-0.07759715
226	0x3e167643	0.14693551
227	0x3e7ad52e	0.24495384
228	0x3e5ec6f2	0.21755579
229	0x3f0cd06c	0.55005527
230	0xbdbab0f3	-0.09115782
231	0xbe84ed8a	-0.25962478
232	0xbf3191e2	-0.69363225
233	0xbe705084	-0.23468214
234	0xbd5eb19c	-0.0543686
235	0xbab881ee	-0.0014076808
236	0x3d00d1f8	0.03145024
237	0xbbebd6b0	-0.0071972236
238	0x3cb1e757	0.021716757
239	0x3cfe309e	0.031029042
240	0xbd35cbb4	-0.04438372
241	0xbbcc1ce9	-0.0062290323
242	0x3c384d64	0.01124892
243	0xbb604776	-0.0034222282
244	0xbc5207a6	-0.012819206
245	0xbd6346f8	-0.055487603
246	0xbe1f766d	-0.1557252
247	0xbf19b708	-0.6004491
248	0x3f30d514	0.6907513
249	0x3dc4dd88	0.09612566
250	0x3cd09804	0.025463112
251	0x3b95e426	0.0045743166
252	0x3b4c289f	0.0031152142
253	0x3aa0b30c	0.0012260391
254	0x3b2b2109	0.002611222
255	0x3d241665	0.04006042

bias11 f4 [288]
0	0x3e64b9d0	0.22336507
1	0xbe4ad2a2	-0.19806913
2	0x3e993182	0.29920584
3	0xbe55e001	-0.20886232
4	0x3facb3f8	1.3492422
5	0x3e7d22ab	0.24720256
6	0x3f5affec	0.85546756
7	0xbdd54a49	-0.104145594
8	0x3b97da95	0.0046342113
9	0x3c6254be	0.013814149
10	0x3c23d7fb	0.010000224
11	0x3f1dcc32	0.616397
12	0x3f953518	1.1656828
13	0xbee2a3d9	-0.4426563
14	0x3f28fafc	0.6600797
15	0xbebf98f0	-0.3742137
16	0xbe7d4a61	-0.24735405
17	0x3e8ff096	0.2811324
18	0x3ade9880	0.0016982704
19	0x3e0d5d75	0.13805182
20	0x3f73e6f6	0.95274293
21	0xbf3386ea	-0.7012774
22	0xbcac3f7b	-0.021026364
23	0x3d6bed4c	0.05759935
24	0xbe28c0c3	-0.16479783
25	0x3f29e7e3	0.66369456
26	0xbd60e8fd	-0.054909695
27	0x3f2832c0	0.6570244
28	0x3d3aed21	0.0456363
29	0xbefebc2d	-0.49752942
30	0xbeb2467e	-0.34819406
31	0xbd559252	-0.052141495
32	0x3e81fa8a	0.2538646
33	0x3e231ac6	0.15928182
34	0xbe23851b	-0.15968744
35	0x3eced28d	0.40395012
36	0x3ec95964	0.39326012
37	0xbda61461	-0.08109356
38	0xbdc9185f	-0.098191015
39	0xbf32c7a7	-0.69835895
40	0xbda1b54f	-0.0789591
41	0xbde9c49a	-0.11414452
42	0x3e681c0e	0.22666952
43	0xbee2d751	-0.44304898
44	0x3f0131ef	0.5046682
45	0xbe1b7b39	-0.15183724
46	0xbe680597	-0.22658382
47	0x3eeabc5b	0.4584683
48	0xbf6dfb2e	-0.92961395
49	0x3e3a6cc0	0.18205547
50	0x3dee4594	0.11634365
51	0xbed819e8	-0.42207265
52	0x3d40a741	0.047034506
53	0xbcd7ff48	-0.026366845
54	0xbde95296	-0.11392705
55	0xbda22869	-0.07917864
56	0x3eb92f7c	0.3616904
57	0x3f9f89a4	1.246388
58	0xbe1394c8	-0.14412224
59	0xbbbc2c0f	-0.005742557
60	0xbe2cedc4	-0.16887575
61	0xbec07707	-0.3759081
62	0xbeaf93e2	-0.34292513
63	0xbe11ad82	-0.14226344
64	0xbe81fb0f	-0.25386855
65	0xbd4b27b5	-0.049598414
66	0x3e3256d7	0.1741594
67	0xbe658500	-0.22414017
68	0xbef9504a	-0.48694068
69	0x3eb2a0d3	0.34888324
70	0xbdfdbf83	-0.123900436
71	0x3e2d31b1	0.16913487
72	0x3f01e658	0.507421
73	0xbf950f58	-1.1645308
74	0xbc115e81	-0.008872629
75	0xbe716a73	-0.23575763
76	0x3eed2974	0.4632069
77	0x3eba7934	0.36420596
78	0xbf0e0551	-0.5547686
79	0xbf11b76f	-0.5692052
80	0x3e54dfa3	0.20788436
81	0xbebb8a85	-0.3662912
82	0xbd53c405	-0.05170061
83	0xbf07f538	-0.5310855
84	0x3e043d53	0.12914018
85	0x3d8a2df5	0.06747047
86	0x3e29835a	0.16554013
87	0xbe88c621	-0.2671366
88	0x3f1504ec	0.58210635
89	0xbe29d10c	-0.16583651
90	0x3ea6ccbc	0.32578075
91	0xbe9cca59	-0.3062313
92	0x3e4b2a96	0.19840464
93	0x3b33be5a	0.002742669
94	0xbd4eb08a	-0.05046133
95	0x3e9b1c61	0.3029509
96	0x3ebb04db	0.36527142
97	0x3fb4f124	1.413609
98	0x3ec8fd1f	0.39255616
99	0xbea94173	-0.33057746
100	0xbc8bc448	-0.017061368
101	0x3f288d00	0.6584015
102	0x3ea65873	0.32489356
103	0x3ed52da5	0.41636387
104	0xbea2f12e	-0.3182463
105	0x3c872f7e	0.016502138
106	0x3ce808fb	0.028324595
107	0xbd06ac77	-0.03287932
108	0x3f00439c	0.50103164
109	0xbe0aebda	-0.13566533
110	0x3d9efcee	0.07763086
111	0xbeb2c47e	-0.34915537
112	0xbef4e626	-0.4783184
113	0xbdf17adb	-0.11791011
114	0x3e2fe2a3	0.17176299
115	0xbefc7334	-0.49306643
116	0xbe61d557	-0.22054039
117	0xbec228c9	-0.37921742
118	0x3e3919d6	0.18076262
119	0x3e5b489e	0.2141442
120	0xbe578076	-0.21045098
121	0xbf689ebf	-0.9086723
122	0xbf2c9e75	-0.67429286
123	0xbed78ab2	-0.42098004
124	0xbe835b64	-0.25655663
125	0x3f4809d9	0.78140026
126	0xbeedb510	-0.46427202
127	0x3f1bf593	0.6092159
128	0x3eca2b63	0.39486226
129	0x3c5d819c	0.013519671
130	0x3e2828be	0.16421792
131	0xbdcc15ca	-0.099650934
132	0xbba1f589	-0.0049426
133	0x3eb26d7e	0.3484916
134	0xbf4e7d8a	-0.8066031
135	0x3f5ab065	0.85425407
136	0x3d466428	0.04843536
137	0xbef0e603	-0.47050485
138	0xbe3e60bb	-0.18591587
139	0xbed19573	-0.40934333
140	0xbea5ed44	-0.32407582
141	0x3f2a8f75	0.6662515
142	0xbdd2cbb3	-0.10292759
143	0x3ee9139f	0.45522782
144	0xbe465e15	-0.19371827
145	0xbeec4de2	-0.4615317
146	0x3db71e14	0.08941284
147	0xbecd82e6	-0.4013893
148	0xbf7d7809	-0.99011284
149	0x3e5c6db4	0.21526223
150	0x3f3f05ec	0.7461841
151	0xbdf2e9c4	-0.118609935
152	0x3dbabc05	0.09117893
153	0xbd012b9c	-0.03153573
154	0xbecd78eb	-0.40131316
155	0x3ebc1e7c	0.36742008
156	0xbf3a996e	-0.72890365
157	0xbf9e53c3	-1.2369312
158	0xbdfa1f37	-0.12212985
159	0x3de023e0	0.109443426
160	0x3ea9e7ce	0.33184665
161	0x3e442a19	0.19156684
162	0x3f06c569	0.52644974
163	0xbd05cce6	-0.03266611
164	0xbf0d17a0	-0.55114174
165	0x3dd5856b	0.10425838
166	0x3e4a8c7e	0.19780156
167	0xbe629ddc	-0.22130531
168	0xbf061e29	-0.5238977
169	0xbf414625	-0.7549766
170	0x3e5b74e8	0.21431315
171	0xbe0ec68b	-0.13942926
172	0x3eef9d71	0.46799806
173	0x3ea07c50	0.31344843
174	0xbeeedd81	-0.4665337
175	0x3d15912d	0.036515404
176	0x3e2bddca	0.16783825
177	0xbe289c19	-0.16465797
178	0xbed8b9df	-0.42329308
179	0xbe8e160f	-0.27751204
180	0x3ea8e4e9	0.32987145
181	0xbe591c9b	-0.21202318
182	0x3f4ada3d	0.79239255
183	0xbe9816ec	-0.29704988
184	0x3d076186	0.03305199
185	0xbef4e412	-0.47830254
186	0x3f0cca2d	0.54995996
187	0xbf4839f7	-0.7821345
188	0x3f4d68c8	0.8023801
189	0x3f55ed23	0.83564967
190	0x3f30f027	0.69116443
191	0x3f3197e1	0.69372374
192	0xbf16918b	-0.5881583
193	0x3ed4903a	0.41516286
194	0x3eab03c3	0.33401307
195	0x3e847259	0.2586849
196	0xbcf18406	-0.029481899
197	0x3e0e1f54	0.13879138
198	0xbe17bdde	-0.14818522
199	0xbe40d113	-0.18829755
200	0x3e6e09fb	0.23245995
201	0xbe59cf99	-0.21270598
202	0x3e8cd0ce	0.27503055
203	0x3efa61e9	0.48902825
204	0xbeb20485	-0.34769073
205	0x3e735e15	0.23766358
206	0x3ea63107	0.3245928
207	0xbdec6eb8	-0.115445554
208	0xbe70446e	-0.23463604
209	0x3cf61def	0.03004357
210	0x3f6e87ee	0.9317616
211	0x3e9f64ad	0.31131497
212	0xbf0400f0	-0.5156393
213	0xbdbf7c2a	-0.09349854
214	0xbf4d62d3	-0.8022892
215	0x3da00c9a	0.078149036
216	0xbf074922	-0.52845967
217	0x3f28e461	0.6597348
218	0x3f47e2f6	0.7808069
219	0x3e42e5d3	0.19032983
220	0xbe87173f	-0.26384923
221	0x3e76c7aa	0.24099603
222	0xbea81646	-0.32829493
223	0x3d91e1a6	0.07123117
224	0xbd9aca6a	-0.07558139
225	0x3d0155ce	0.03157597
226	0x3f87772d	1.0583245
227	0x3bb5b8ff	0.005545735
228	0x3ee93f8b	0.45556292
229	0x3e19a3b2	0.15003851
230	0x3e14f291	0.14545657
231	0x3e3cd0a8	0.18438971
232	0x3f67ffe4	0.90624833
233	0x3e91ffa4	0.2851535
234	0xbc13bbb9	-0.009016925
235	0x3dc96381	0.09833432
236	0xbe1f3519	-0.15547599
237	0x3f0df532	0.55452263
238	0xbefb8070	-0.49121428
239	0xbf27c4fd	-0.65534955
240	0xbe88f014	-0.26745665
241	0x3e2e6274	0.17029744
242	0xbea8e229	-0.32985047
243	0x3ebd571a	0.36980516
244	0x3e955bce	0.29171604
245	0xbf286a16	-0.65786874
246	0xbc60c02d	-0.013717693
247	0x3ce057dc	0.027385645
248	0xbf2fd1fa	-0.68679774
249	0x3edef468	0.43545842
250	0x3d159090	0.03651482
251	0xbdf74527	-0.12073737
252	0x3d4052f0	0.046954095
253	0x3f135993	0.57558554
254	0x3db0f330	0.08640134
255	0xbe9ee666	-0.31035155
